<?xml version="1.0"?>
<net name="torch_jit" version="11">
	<layers>
		<layer id="0" name="images" type="Parameter" version="opset1">
			<data shape="1,3,640,640" element_type="f32" />
			<rt_info>
				<attribute name="fused_names" version="0" value="images" />
			</rt_info>
			<output>
				<port id="0" precision="FP32" names="images">
					<dim>1</dim>
					<dim>3</dim>
					<dim>640</dim>
					<dim>640</dim>
					<rt_info>
						<attribute name="layout" version="0" layout="[N,C,H,W]" />
					</rt_info>
				</port>
			</output>
		</layer>
		<layer id="1" name="/model.22/Constant_8" type="Const" version="opset1">
			<data element_type="f32" shape="" offset="0" size="4" />
			<rt_info>
				<attribute name="fused_names" version="0" value="/model.22/Constant_8" />
			</rt_info>
			<output>
				<port id="0" precision="FP32" names="/model.22/Constant_8_output_0" />
			</output>
		</layer>
		<layer id="2" name="Constant_4747" type="Const" version="opset1">
			<data element_type="i64" shape="" offset="4" size="8" />
			<output>
				<port id="0" precision="I64" />
			</output>
		</layer>
		<layer id="3" name="Constant_4748" type="Const" version="opset1">
			<data element_type="i64" shape="" offset="12" size="8" />
			<output>
				<port id="0" precision="I64" />
			</output>
		</layer>
		<layer id="4" name="Constant_4749" type="Const" version="opset1">
			<data element_type="i64" shape="" offset="12" size="8" />
			<output>
				<port id="0" precision="I64" />
			</output>
		</layer>
		<layer id="5" name="Range_4750" type="Range" version="opset4">
			<data output_type="i32" />
			<input>
				<port id="0" precision="I64" />
				<port id="1" precision="I64" />
				<port id="2" precision="I64" />
			</input>
			<output>
				<port id="3" precision="I32">
					<dim>3</dim>
				</port>
			</output>
		</layer>
		<layer id="6" name="Constant_4751" type="Const" version="opset1">
			<data element_type="i32" shape="1" offset="20" size="4" />
			<output>
				<port id="0" precision="I32">
					<dim>1</dim>
				</port>
			</output>
		</layer>
		<layer id="7" name="Gather_4752" type="Gather" version="opset8">
			<data batch_dims="0" />
			<input>
				<port id="0" precision="FP32">
					<dim>1</dim>
					<dim>3</dim>
					<dim>640</dim>
					<dim>640</dim>
				</port>
				<port id="1" precision="I32">
					<dim>3</dim>
				</port>
				<port id="2" precision="I32">
					<dim>1</dim>
				</port>
			</input>
			<output>
				<port id="3" precision="FP32">
					<dim>1</dim>
					<dim>3</dim>
					<dim>640</dim>
					<dim>640</dim>
				</port>
			</output>
		</layer>
		<layer id="8" name="Constant_4753" type="Const" version="opset1">
			<data element_type="f32" shape="1, 3, 1, 1" offset="24" size="12" />
			<output>
				<port id="0" precision="FP32">
					<dim>1</dim>
					<dim>3</dim>
					<dim>1</dim>
					<dim>1</dim>
				</port>
			</output>
		</layer>
		<layer id="9" name="Divide_4754" type="Divide" version="opset1">
			<data auto_broadcast="numpy" m_pythondiv="true" />
			<rt_info>
				<attribute name="preprocessing" version="0" />
			</rt_info>
			<input>
				<port id="0" precision="FP32">
					<dim>1</dim>
					<dim>3</dim>
					<dim>640</dim>
					<dim>640</dim>
				</port>
				<port id="1" precision="FP32">
					<dim>1</dim>
					<dim>3</dim>
					<dim>1</dim>
					<dim>1</dim>
				</port>
			</input>
			<output>
				<port id="2" precision="FP32">
					<dim>1</dim>
					<dim>3</dim>
					<dim>640</dim>
					<dim>640</dim>
				</port>
			</output>
		</layer>
		<layer id="10" name="Constant_36967" type="Const" version="opset1">
			<data element_type="f32" shape="" offset="0" size="4" />
			<rt_info>
				<attribute name="fused_names" version="0" value="Constant_36967" />
			</rt_info>
			<output>
				<port id="0" precision="FP32" />
			</output>
		</layer>
		<layer id="11" name="Constant_36968" type="Const" version="opset1">
			<data element_type="f32" shape="" offset="36" size="4" />
			<rt_info>
				<attribute name="fused_names" version="0" value="Constant_36968" />
			</rt_info>
			<output>
				<port id="0" precision="FP32" />
			</output>
		</layer>
		<layer id="12" name="Constant_36969" type="Const" version="opset1">
			<data element_type="f32" shape="" offset="0" size="4" />
			<rt_info>
				<attribute name="fused_names" version="0" value="Constant_36969" />
			</rt_info>
			<output>
				<port id="0" precision="FP32" />
			</output>
		</layer>
		<layer id="13" name="Constant_36970" type="Const" version="opset1">
			<data element_type="f32" shape="" offset="36" size="4" />
			<rt_info>
				<attribute name="fused_names" version="0" value="Constant_36970" />
			</rt_info>
			<output>
				<port id="0" precision="FP32" />
			</output>
		</layer>
		<layer id="14" name="images/fq_output_0" type="FakeQuantize" version="opset1">
			<data levels="256" auto_broadcast="numpy" />
			<rt_info>
				<attribute name="fused_names" version="0" value="images/fq_output_0" />
			</rt_info>
			<input>
				<port id="0" precision="FP32">
					<dim>1</dim>
					<dim>3</dim>
					<dim>640</dim>
					<dim>640</dim>
				</port>
				<port id="1" precision="FP32" />
				<port id="2" precision="FP32" />
				<port id="3" precision="FP32" />
				<port id="4" precision="FP32" />
			</input>
			<output>
				<port id="5" precision="FP32">
					<dim>1</dim>
					<dim>3</dim>
					<dim>640</dim>
					<dim>640</dim>
				</port>
			</output>
		</layer>
		<layer id="15" name="model.0.conv.weight" type="Const" version="opset1">
			<data element_type="i8" shape="16, 3, 3, 3" offset="40" size="432" />
			<rt_info>
				<attribute name="fused_names" version="0" value="model.0.conv.weight" />
			</rt_info>
			<output>
				<port id="0" precision="I8">
					<dim>16</dim>
					<dim>3</dim>
					<dim>3</dim>
					<dim>3</dim>
				</port>
			</output>
		</layer>
		<layer id="16" name="Convert_273948" type="Convert" version="opset1">
			<data destination_type="f32" />
			<rt_info>
				<attribute name="fused_names" version="0" value="model.0.conv.weight" />
			</rt_info>
			<input>
				<port id="0" precision="I8">
					<dim>16</dim>
					<dim>3</dim>
					<dim>3</dim>
					<dim>3</dim>
				</port>
			</input>
			<output>
				<port id="1" precision="FP32">
					<dim>16</dim>
					<dim>3</dim>
					<dim>3</dim>
					<dim>3</dim>
				</port>
			</output>
		</layer>
		<layer id="17" name="Constant_273846" type="Const" version="opset1">
			<data element_type="f32" shape="16, 1, 1, 1" offset="472" size="64" />
			<rt_info>
				<attribute name="fused_names" version="0" value="model.0.conv.weight" />
			</rt_info>
			<output>
				<port id="0" precision="FP32">
					<dim>16</dim>
					<dim>1</dim>
					<dim>1</dim>
					<dim>1</dim>
				</port>
			</output>
		</layer>
		<layer id="18" name="/model.0/conv/Conv/WithoutBiases/fq_weights_1" type="Multiply" version="opset1">
			<data auto_broadcast="numpy" />
			<rt_info>
				<attribute name="fused_names" version="0" value="model.0.conv.weight" />
			</rt_info>
			<input>
				<port id="0" precision="FP32">
					<dim>16</dim>
					<dim>3</dim>
					<dim>3</dim>
					<dim>3</dim>
				</port>
				<port id="1" precision="FP32">
					<dim>16</dim>
					<dim>1</dim>
					<dim>1</dim>
					<dim>1</dim>
				</port>
			</input>
			<output>
				<port id="2" precision="FP32">
					<dim>16</dim>
					<dim>3</dim>
					<dim>3</dim>
					<dim>3</dim>
				</port>
			</output>
		</layer>
		<layer id="19" name="/model.0/conv/Conv/WithoutBiases" type="Convolution" version="opset1">
			<data strides="2, 2" dilations="1, 1" pads_begin="1, 1" pads_end="1, 1" auto_pad="explicit" />
			<rt_info>
				<attribute name="fused_names" version="0" value="/model.0/conv/Conv/WithoutBiases" />
			</rt_info>
			<input>
				<port id="0" precision="FP32">
					<dim>1</dim>
					<dim>3</dim>
					<dim>640</dim>
					<dim>640</dim>
				</port>
				<port id="1" precision="FP32">
					<dim>16</dim>
					<dim>3</dim>
					<dim>3</dim>
					<dim>3</dim>
				</port>
			</input>
			<output>
				<port id="2" precision="FP32">
					<dim>1</dim>
					<dim>16</dim>
					<dim>320</dim>
					<dim>320</dim>
				</port>
			</output>
		</layer>
		<layer id="20" name="Reshape_140" type="Const" version="opset1">
			<data element_type="f32" shape="1, 16, 1, 1" offset="536" size="64" />
			<rt_info>
				<attribute name="fused_names" version="0" value="Reshape_140" />
			</rt_info>
			<output>
				<port id="0" precision="FP32">
					<dim>1</dim>
					<dim>16</dim>
					<dim>1</dim>
					<dim>1</dim>
				</port>
			</output>
		</layer>
		<layer id="21" name="/model.0/conv/Conv" type="Add" version="opset1">
			<data auto_broadcast="numpy" />
			<rt_info>
				<attribute name="fused_names" version="0" value="/model.0/conv/Conv" />
			</rt_info>
			<input>
				<port id="0" precision="FP32">
					<dim>1</dim>
					<dim>16</dim>
					<dim>320</dim>
					<dim>320</dim>
				</port>
				<port id="1" precision="FP32">
					<dim>1</dim>
					<dim>16</dim>
					<dim>1</dim>
					<dim>1</dim>
				</port>
			</input>
			<output>
				<port id="2" precision="FP32" names="/model.0/conv/Conv_output_0">
					<dim>1</dim>
					<dim>16</dim>
					<dim>320</dim>
					<dim>320</dim>
				</port>
			</output>
		</layer>
		<layer id="22" name="/model.0/act/Mul" type="Swish" version="opset4">
			<rt_info>
				<attribute name="fused_names" version="0" value="/model.0/act/Mul" />
			</rt_info>
			<input>
				<port id="0" precision="FP32">
					<dim>1</dim>
					<dim>16</dim>
					<dim>320</dim>
					<dim>320</dim>
				</port>
			</input>
			<output>
				<port id="1" precision="FP32" names="/model.0/act/Mul_output_0">
					<dim>1</dim>
					<dim>16</dim>
					<dim>320</dim>
					<dim>320</dim>
				</port>
			</output>
		</layer>
		<layer id="23" name="Constant_36977" type="Const" version="opset1">
			<data element_type="f32" shape="" offset="600" size="4" />
			<rt_info>
				<attribute name="fused_names" version="0" value="Constant_36977" />
			</rt_info>
			<output>
				<port id="0" precision="FP32" />
			</output>
		</layer>
		<layer id="24" name="Constant_36978" type="Const" version="opset1">
			<data element_type="f32" shape="" offset="604" size="4" />
			<rt_info>
				<attribute name="fused_names" version="0" value="Constant_36978" />
			</rt_info>
			<output>
				<port id="0" precision="FP32" />
			</output>
		</layer>
		<layer id="25" name="Constant_36979" type="Const" version="opset1">
			<data element_type="f32" shape="" offset="600" size="4" />
			<rt_info>
				<attribute name="fused_names" version="0" value="Constant_36979" />
			</rt_info>
			<output>
				<port id="0" precision="FP32" />
			</output>
		</layer>
		<layer id="26" name="Constant_36980" type="Const" version="opset1">
			<data element_type="f32" shape="" offset="604" size="4" />
			<rt_info>
				<attribute name="fused_names" version="0" value="Constant_36980" />
			</rt_info>
			<output>
				<port id="0" precision="FP32" />
			</output>
		</layer>
		<layer id="27" name="/model.0/act/Mul/fq_output_0" type="FakeQuantize" version="opset1">
			<data levels="256" auto_broadcast="numpy" />
			<rt_info>
				<attribute name="fused_names" version="0" value="/model.0/act/Mul/fq_output_0" />
			</rt_info>
			<input>
				<port id="0" precision="FP32">
					<dim>1</dim>
					<dim>16</dim>
					<dim>320</dim>
					<dim>320</dim>
				</port>
				<port id="1" precision="FP32" />
				<port id="2" precision="FP32" />
				<port id="3" precision="FP32" />
				<port id="4" precision="FP32" />
			</input>
			<output>
				<port id="5" precision="FP32">
					<dim>1</dim>
					<dim>16</dim>
					<dim>320</dim>
					<dim>320</dim>
				</port>
			</output>
		</layer>
		<layer id="28" name="model.1.conv.weight" type="Const" version="opset1">
			<data element_type="i8" shape="32, 16, 3, 3" offset="608" size="4608" />
			<rt_info>
				<attribute name="fused_names" version="0" value="model.1.conv.weight" />
			</rt_info>
			<output>
				<port id="0" precision="I8">
					<dim>32</dim>
					<dim>16</dim>
					<dim>3</dim>
					<dim>3</dim>
				</port>
			</output>
		</layer>
		<layer id="29" name="Convert_274102" type="Convert" version="opset1">
			<data destination_type="f32" />
			<rt_info>
				<attribute name="fused_names" version="0" value="model.1.conv.weight" />
			</rt_info>
			<input>
				<port id="0" precision="I8">
					<dim>32</dim>
					<dim>16</dim>
					<dim>3</dim>
					<dim>3</dim>
				</port>
			</input>
			<output>
				<port id="1" precision="FP32">
					<dim>32</dim>
					<dim>16</dim>
					<dim>3</dim>
					<dim>3</dim>
				</port>
			</output>
		</layer>
		<layer id="30" name="Constant_274000" type="Const" version="opset1">
			<data element_type="f32" shape="32, 1, 1, 1" offset="5216" size="128" />
			<rt_info>
				<attribute name="fused_names" version="0" value="model.1.conv.weight" />
			</rt_info>
			<output>
				<port id="0" precision="FP32">
					<dim>32</dim>
					<dim>1</dim>
					<dim>1</dim>
					<dim>1</dim>
				</port>
			</output>
		</layer>
		<layer id="31" name="/model.1/conv/Conv/WithoutBiases/fq_weights_1" type="Multiply" version="opset1">
			<data auto_broadcast="numpy" />
			<rt_info>
				<attribute name="fused_names" version="0" value="model.1.conv.weight" />
			</rt_info>
			<input>
				<port id="0" precision="FP32">
					<dim>32</dim>
					<dim>16</dim>
					<dim>3</dim>
					<dim>3</dim>
				</port>
				<port id="1" precision="FP32">
					<dim>32</dim>
					<dim>1</dim>
					<dim>1</dim>
					<dim>1</dim>
				</port>
			</input>
			<output>
				<port id="2" precision="FP32">
					<dim>32</dim>
					<dim>16</dim>
					<dim>3</dim>
					<dim>3</dim>
				</port>
			</output>
		</layer>
		<layer id="32" name="/model.1/conv/Conv/WithoutBiases" type="Convolution" version="opset1">
			<data strides="2, 2" dilations="1, 1" pads_begin="1, 1" pads_end="1, 1" auto_pad="explicit" />
			<rt_info>
				<attribute name="fused_names" version="0" value="/model.1/conv/Conv/WithoutBiases" />
			</rt_info>
			<input>
				<port id="0" precision="FP32">
					<dim>1</dim>
					<dim>16</dim>
					<dim>320</dim>
					<dim>320</dim>
				</port>
				<port id="1" precision="FP32">
					<dim>32</dim>
					<dim>16</dim>
					<dim>3</dim>
					<dim>3</dim>
				</port>
			</input>
			<output>
				<port id="2" precision="FP32">
					<dim>1</dim>
					<dim>32</dim>
					<dim>160</dim>
					<dim>160</dim>
				</port>
			</output>
		</layer>
		<layer id="33" name="Reshape_157" type="Const" version="opset1">
			<data element_type="f32" shape="1, 32, 1, 1" offset="5344" size="128" />
			<rt_info>
				<attribute name="fused_names" version="0" value="Reshape_157" />
			</rt_info>
			<output>
				<port id="0" precision="FP32">
					<dim>1</dim>
					<dim>32</dim>
					<dim>1</dim>
					<dim>1</dim>
				</port>
			</output>
		</layer>
		<layer id="34" name="/model.1/conv/Conv" type="Add" version="opset1">
			<data auto_broadcast="numpy" />
			<rt_info>
				<attribute name="fused_names" version="0" value="/model.1/conv/Conv" />
			</rt_info>
			<input>
				<port id="0" precision="FP32">
					<dim>1</dim>
					<dim>32</dim>
					<dim>160</dim>
					<dim>160</dim>
				</port>
				<port id="1" precision="FP32">
					<dim>1</dim>
					<dim>32</dim>
					<dim>1</dim>
					<dim>1</dim>
				</port>
			</input>
			<output>
				<port id="2" precision="FP32" names="/model.1/conv/Conv_output_0">
					<dim>1</dim>
					<dim>32</dim>
					<dim>160</dim>
					<dim>160</dim>
				</port>
			</output>
		</layer>
		<layer id="35" name="/model.1/act/Mul" type="Swish" version="opset4">
			<rt_info>
				<attribute name="fused_names" version="0" value="/model.1/act/Mul" />
			</rt_info>
			<input>
				<port id="0" precision="FP32">
					<dim>1</dim>
					<dim>32</dim>
					<dim>160</dim>
					<dim>160</dim>
				</port>
			</input>
			<output>
				<port id="1" precision="FP32" names="/model.1/act/Mul_output_0">
					<dim>1</dim>
					<dim>32</dim>
					<dim>160</dim>
					<dim>160</dim>
				</port>
			</output>
		</layer>
		<layer id="36" name="Constant_36987" type="Const" version="opset1">
			<data element_type="f32" shape="" offset="5472" size="4" />
			<rt_info>
				<attribute name="fused_names" version="0" value="Constant_36987" />
			</rt_info>
			<output>
				<port id="0" precision="FP32" />
			</output>
		</layer>
		<layer id="37" name="Constant_36988" type="Const" version="opset1">
			<data element_type="f32" shape="" offset="5476" size="4" />
			<rt_info>
				<attribute name="fused_names" version="0" value="Constant_36988" />
			</rt_info>
			<output>
				<port id="0" precision="FP32" />
			</output>
		</layer>
		<layer id="38" name="Constant_36989" type="Const" version="opset1">
			<data element_type="f32" shape="" offset="5472" size="4" />
			<rt_info>
				<attribute name="fused_names" version="0" value="Constant_36989" />
			</rt_info>
			<output>
				<port id="0" precision="FP32" />
			</output>
		</layer>
		<layer id="39" name="Constant_36990" type="Const" version="opset1">
			<data element_type="f32" shape="" offset="5476" size="4" />
			<rt_info>
				<attribute name="fused_names" version="0" value="Constant_36990" />
			</rt_info>
			<output>
				<port id="0" precision="FP32" />
			</output>
		</layer>
		<layer id="40" name="/model.1/act/Mul/fq_output_0" type="FakeQuantize" version="opset1">
			<data levels="256" auto_broadcast="numpy" />
			<rt_info>
				<attribute name="fused_names" version="0" value="/model.1/act/Mul/fq_output_0" />
			</rt_info>
			<input>
				<port id="0" precision="FP32">
					<dim>1</dim>
					<dim>32</dim>
					<dim>160</dim>
					<dim>160</dim>
				</port>
				<port id="1" precision="FP32" />
				<port id="2" precision="FP32" />
				<port id="3" precision="FP32" />
				<port id="4" precision="FP32" />
			</input>
			<output>
				<port id="5" precision="FP32">
					<dim>1</dim>
					<dim>32</dim>
					<dim>160</dim>
					<dim>160</dim>
				</port>
			</output>
		</layer>
		<layer id="41" name="model.2.cv1.conv.weight" type="Const" version="opset1">
			<data element_type="i8" shape="32, 32, 1, 1" offset="5480" size="1024" />
			<rt_info>
				<attribute name="fused_names" version="0" value="model.2.cv1.conv.weight" />
			</rt_info>
			<output>
				<port id="0" precision="I8">
					<dim>32</dim>
					<dim>32</dim>
					<dim>1</dim>
					<dim>1</dim>
				</port>
			</output>
		</layer>
		<layer id="42" name="Convert_274256" type="Convert" version="opset1">
			<data destination_type="f32" />
			<rt_info>
				<attribute name="fused_names" version="0" value="model.2.cv1.conv.weight" />
			</rt_info>
			<input>
				<port id="0" precision="I8">
					<dim>32</dim>
					<dim>32</dim>
					<dim>1</dim>
					<dim>1</dim>
				</port>
			</input>
			<output>
				<port id="1" precision="FP32">
					<dim>32</dim>
					<dim>32</dim>
					<dim>1</dim>
					<dim>1</dim>
				</port>
			</output>
		</layer>
		<layer id="43" name="Constant_274154" type="Const" version="opset1">
			<data element_type="f32" shape="32, 1, 1, 1" offset="6504" size="128" />
			<rt_info>
				<attribute name="fused_names" version="0" value="model.2.cv1.conv.weight" />
			</rt_info>
			<output>
				<port id="0" precision="FP32">
					<dim>32</dim>
					<dim>1</dim>
					<dim>1</dim>
					<dim>1</dim>
				</port>
			</output>
		</layer>
		<layer id="44" name="/model.2/cv1/conv/Conv/WithoutBiases/fq_weights_1" type="Multiply" version="opset1">
			<data auto_broadcast="numpy" />
			<rt_info>
				<attribute name="fused_names" version="0" value="model.2.cv1.conv.weight" />
			</rt_info>
			<input>
				<port id="0" precision="FP32">
					<dim>32</dim>
					<dim>32</dim>
					<dim>1</dim>
					<dim>1</dim>
				</port>
				<port id="1" precision="FP32">
					<dim>32</dim>
					<dim>1</dim>
					<dim>1</dim>
					<dim>1</dim>
				</port>
			</input>
			<output>
				<port id="2" precision="FP32">
					<dim>32</dim>
					<dim>32</dim>
					<dim>1</dim>
					<dim>1</dim>
				</port>
			</output>
		</layer>
		<layer id="45" name="/model.2/cv1/conv/Conv/WithoutBiases" type="Convolution" version="opset1">
			<data strides="1, 1" dilations="1, 1" pads_begin="0, 0" pads_end="0, 0" auto_pad="explicit" />
			<rt_info>
				<attribute name="fused_names" version="0" value="/model.2/cv1/conv/Conv/WithoutBiases" />
			</rt_info>
			<input>
				<port id="0" precision="FP32">
					<dim>1</dim>
					<dim>32</dim>
					<dim>160</dim>
					<dim>160</dim>
				</port>
				<port id="1" precision="FP32">
					<dim>32</dim>
					<dim>32</dim>
					<dim>1</dim>
					<dim>1</dim>
				</port>
			</input>
			<output>
				<port id="2" precision="FP32">
					<dim>1</dim>
					<dim>32</dim>
					<dim>160</dim>
					<dim>160</dim>
				</port>
			</output>
		</layer>
		<layer id="46" name="Reshape_174" type="Const" version="opset1">
			<data element_type="f32" shape="1, 32, 1, 1" offset="6632" size="128" />
			<rt_info>
				<attribute name="fused_names" version="0" value="Reshape_174" />
			</rt_info>
			<output>
				<port id="0" precision="FP32">
					<dim>1</dim>
					<dim>32</dim>
					<dim>1</dim>
					<dim>1</dim>
				</port>
			</output>
		</layer>
		<layer id="47" name="/model.2/cv1/conv/Conv" type="Add" version="opset1">
			<data auto_broadcast="numpy" />
			<rt_info>
				<attribute name="fused_names" version="0" value="/model.2/cv1/conv/Conv" />
			</rt_info>
			<input>
				<port id="0" precision="FP32">
					<dim>1</dim>
					<dim>32</dim>
					<dim>160</dim>
					<dim>160</dim>
				</port>
				<port id="1" precision="FP32">
					<dim>1</dim>
					<dim>32</dim>
					<dim>1</dim>
					<dim>1</dim>
				</port>
			</input>
			<output>
				<port id="2" precision="FP32" names="/model.2/cv1/conv/Conv_output_0">
					<dim>1</dim>
					<dim>32</dim>
					<dim>160</dim>
					<dim>160</dim>
				</port>
			</output>
		</layer>
		<layer id="48" name="/model.2/cv1/act/Mul" type="Swish" version="opset4">
			<rt_info>
				<attribute name="fused_names" version="0" value="/model.2/cv1/act/Mul" />
			</rt_info>
			<input>
				<port id="0" precision="FP32">
					<dim>1</dim>
					<dim>32</dim>
					<dim>160</dim>
					<dim>160</dim>
				</port>
			</input>
			<output>
				<port id="1" precision="FP32" names="/model.2/cv1/act/Mul_output_0">
					<dim>1</dim>
					<dim>32</dim>
					<dim>160</dim>
					<dim>160</dim>
				</port>
			</output>
		</layer>
		<layer id="49" name="Constant_36837" type="Const" version="opset1">
			<data element_type="f32" shape="" offset="6760" size="4" />
			<rt_info>
				<attribute name="fused_names" version="0" value="Constant_36837" />
			</rt_info>
			<output>
				<port id="0" precision="FP32" />
			</output>
		</layer>
		<layer id="50" name="Constant_36838" type="Const" version="opset1">
			<data element_type="f32" shape="" offset="6764" size="4" />
			<rt_info>
				<attribute name="fused_names" version="0" value="Constant_36838" />
			</rt_info>
			<output>
				<port id="0" precision="FP32" />
			</output>
		</layer>
		<layer id="51" name="Constant_36839" type="Const" version="opset1">
			<data element_type="f32" shape="" offset="6760" size="4" />
			<rt_info>
				<attribute name="fused_names" version="0" value="Constant_36839" />
			</rt_info>
			<output>
				<port id="0" precision="FP32" />
			</output>
		</layer>
		<layer id="52" name="Constant_36840" type="Const" version="opset1">
			<data element_type="f32" shape="" offset="6764" size="4" />
			<rt_info>
				<attribute name="fused_names" version="0" value="Constant_36840" />
			</rt_info>
			<output>
				<port id="0" precision="FP32" />
			</output>
		</layer>
		<layer id="53" name="/model.2/cv1/act/Mul/fq_output_0" type="FakeQuantize" version="opset1">
			<data levels="256" auto_broadcast="numpy" />
			<rt_info>
				<attribute name="fused_names" version="0" value="/model.2/cv1/act/Mul/fq_output_0" />
			</rt_info>
			<input>
				<port id="0" precision="FP32">
					<dim>1</dim>
					<dim>32</dim>
					<dim>160</dim>
					<dim>160</dim>
				</port>
				<port id="1" precision="FP32" />
				<port id="2" precision="FP32" />
				<port id="3" precision="FP32" />
				<port id="4" precision="FP32" />
			</input>
			<output>
				<port id="5" precision="FP32">
					<dim>1</dim>
					<dim>32</dim>
					<dim>160</dim>
					<dim>160</dim>
				</port>
			</output>
		</layer>
		<layer id="54" name="Constant_181" type="Const" version="opset1">
			<data element_type="i64" shape="" offset="6768" size="8" />
			<rt_info>
				<attribute name="fused_names" version="0" value="Constant_181" />
			</rt_info>
			<output>
				<port id="0" precision="I64" />
			</output>
		</layer>
		<layer id="55" name="Constant_9" type="Const" version="opset1">
			<data element_type="i64" shape="2" offset="6776" size="16" />
			<rt_info>
				<attribute name="fused_names" version="0" value="Constant_9" />
			</rt_info>
			<output>
				<port id="0" precision="I64" names="onnx::Split_141">
					<dim>2</dim>
				</port>
			</output>
		</layer>
		<layer id="56" name="/model.2/Split" type="VariadicSplit" version="opset1">
			<rt_info>
				<attribute name="fused_names" version="0" value="/model.2/Split" />
			</rt_info>
			<input>
				<port id="0" precision="FP32">
					<dim>1</dim>
					<dim>32</dim>
					<dim>160</dim>
					<dim>160</dim>
				</port>
				<port id="1" precision="I64" />
				<port id="2" precision="I64">
					<dim>2</dim>
				</port>
			</input>
			<output>
				<port id="3" precision="FP32" names="/model.2/Split_output_0">
					<dim>1</dim>
					<dim>16</dim>
					<dim>160</dim>
					<dim>160</dim>
				</port>
				<port id="4" precision="FP32" names="/model.2/Split_output_1">
					<dim>1</dim>
					<dim>16</dim>
					<dim>160</dim>
					<dim>160</dim>
				</port>
			</output>
		</layer>
		<layer id="57" name="model.2.m.0.cv1.conv.weight" type="Const" version="opset1">
			<data element_type="i8" shape="16, 16, 3, 3" offset="6792" size="2304" />
			<rt_info>
				<attribute name="fused_names" version="0" value="model.2.m.0.cv1.conv.weight" />
			</rt_info>
			<output>
				<port id="0" precision="I8">
					<dim>16</dim>
					<dim>16</dim>
					<dim>3</dim>
					<dim>3</dim>
				</port>
			</output>
		</layer>
		<layer id="58" name="Convert_274410" type="Convert" version="opset1">
			<data destination_type="f32" />
			<rt_info>
				<attribute name="fused_names" version="0" value="model.2.m.0.cv1.conv.weight" />
			</rt_info>
			<input>
				<port id="0" precision="I8">
					<dim>16</dim>
					<dim>16</dim>
					<dim>3</dim>
					<dim>3</dim>
				</port>
			</input>
			<output>
				<port id="1" precision="FP32">
					<dim>16</dim>
					<dim>16</dim>
					<dim>3</dim>
					<dim>3</dim>
				</port>
			</output>
		</layer>
		<layer id="59" name="Constant_274308" type="Const" version="opset1">
			<data element_type="f32" shape="16, 1, 1, 1" offset="9096" size="64" />
			<rt_info>
				<attribute name="fused_names" version="0" value="model.2.m.0.cv1.conv.weight" />
			</rt_info>
			<output>
				<port id="0" precision="FP32">
					<dim>16</dim>
					<dim>1</dim>
					<dim>1</dim>
					<dim>1</dim>
				</port>
			</output>
		</layer>
		<layer id="60" name="/model.2/m.0/cv1/conv/Conv/WithoutBiases/fq_weights_1" type="Multiply" version="opset1">
			<data auto_broadcast="numpy" />
			<rt_info>
				<attribute name="fused_names" version="0" value="model.2.m.0.cv1.conv.weight" />
			</rt_info>
			<input>
				<port id="0" precision="FP32">
					<dim>16</dim>
					<dim>16</dim>
					<dim>3</dim>
					<dim>3</dim>
				</port>
				<port id="1" precision="FP32">
					<dim>16</dim>
					<dim>1</dim>
					<dim>1</dim>
					<dim>1</dim>
				</port>
			</input>
			<output>
				<port id="2" precision="FP32">
					<dim>16</dim>
					<dim>16</dim>
					<dim>3</dim>
					<dim>3</dim>
				</port>
			</output>
		</layer>
		<layer id="61" name="/model.2/m.0/cv1/conv/Conv/WithoutBiases" type="Convolution" version="opset1">
			<data strides="1, 1" dilations="1, 1" pads_begin="1, 1" pads_end="1, 1" auto_pad="explicit" />
			<rt_info>
				<attribute name="fused_names" version="0" value="/model.2/m.0/cv1/conv/Conv/WithoutBiases" />
			</rt_info>
			<input>
				<port id="0" precision="FP32">
					<dim>1</dim>
					<dim>16</dim>
					<dim>160</dim>
					<dim>160</dim>
				</port>
				<port id="1" precision="FP32">
					<dim>16</dim>
					<dim>16</dim>
					<dim>3</dim>
					<dim>3</dim>
				</port>
			</input>
			<output>
				<port id="2" precision="FP32">
					<dim>1</dim>
					<dim>16</dim>
					<dim>160</dim>
					<dim>160</dim>
				</port>
			</output>
		</layer>
		<layer id="62" name="Reshape_194" type="Const" version="opset1">
			<data element_type="f32" shape="1, 16, 1, 1" offset="9160" size="64" />
			<rt_info>
				<attribute name="fused_names" version="0" value="Reshape_194" />
			</rt_info>
			<output>
				<port id="0" precision="FP32">
					<dim>1</dim>
					<dim>16</dim>
					<dim>1</dim>
					<dim>1</dim>
				</port>
			</output>
		</layer>
		<layer id="63" name="/model.2/m.0/cv1/conv/Conv" type="Add" version="opset1">
			<data auto_broadcast="numpy" />
			<rt_info>
				<attribute name="fused_names" version="0" value="/model.2/m.0/cv1/conv/Conv" />
			</rt_info>
			<input>
				<port id="0" precision="FP32">
					<dim>1</dim>
					<dim>16</dim>
					<dim>160</dim>
					<dim>160</dim>
				</port>
				<port id="1" precision="FP32">
					<dim>1</dim>
					<dim>16</dim>
					<dim>1</dim>
					<dim>1</dim>
				</port>
			</input>
			<output>
				<port id="2" precision="FP32" names="/model.2/m.0/cv1/conv/Conv_output_0">
					<dim>1</dim>
					<dim>16</dim>
					<dim>160</dim>
					<dim>160</dim>
				</port>
			</output>
		</layer>
		<layer id="64" name="/model.2/m.0/cv1/act/Mul" type="Swish" version="opset4">
			<rt_info>
				<attribute name="fused_names" version="0" value="/model.2/m.0/cv1/act/Mul" />
			</rt_info>
			<input>
				<port id="0" precision="FP32">
					<dim>1</dim>
					<dim>16</dim>
					<dim>160</dim>
					<dim>160</dim>
				</port>
			</input>
			<output>
				<port id="1" precision="FP32" names="/model.2/m.0/cv1/act/Mul_output_0">
					<dim>1</dim>
					<dim>16</dim>
					<dim>160</dim>
					<dim>160</dim>
				</port>
			</output>
		</layer>
		<layer id="65" name="Constant_37002" type="Const" version="opset1">
			<data element_type="f32" shape="" offset="9224" size="4" />
			<rt_info>
				<attribute name="fused_names" version="0" value="Constant_37002" />
			</rt_info>
			<output>
				<port id="0" precision="FP32" />
			</output>
		</layer>
		<layer id="66" name="Constant_37003" type="Const" version="opset1">
			<data element_type="f32" shape="" offset="9228" size="4" />
			<rt_info>
				<attribute name="fused_names" version="0" value="Constant_37003" />
			</rt_info>
			<output>
				<port id="0" precision="FP32" />
			</output>
		</layer>
		<layer id="67" name="Constant_37004" type="Const" version="opset1">
			<data element_type="f32" shape="" offset="9224" size="4" />
			<rt_info>
				<attribute name="fused_names" version="0" value="Constant_37004" />
			</rt_info>
			<output>
				<port id="0" precision="FP32" />
			</output>
		</layer>
		<layer id="68" name="Constant_37005" type="Const" version="opset1">
			<data element_type="f32" shape="" offset="9228" size="4" />
			<rt_info>
				<attribute name="fused_names" version="0" value="Constant_37005" />
			</rt_info>
			<output>
				<port id="0" precision="FP32" />
			</output>
		</layer>
		<layer id="69" name="/model.2/m.0/cv1/act/Mul/fq_output_0" type="FakeQuantize" version="opset1">
			<data levels="256" auto_broadcast="numpy" />
			<rt_info>
				<attribute name="fused_names" version="0" value="/model.2/m.0/cv1/act/Mul/fq_output_0" />
			</rt_info>
			<input>
				<port id="0" precision="FP32">
					<dim>1</dim>
					<dim>16</dim>
					<dim>160</dim>
					<dim>160</dim>
				</port>
				<port id="1" precision="FP32" />
				<port id="2" precision="FP32" />
				<port id="3" precision="FP32" />
				<port id="4" precision="FP32" />
			</input>
			<output>
				<port id="5" precision="FP32">
					<dim>1</dim>
					<dim>16</dim>
					<dim>160</dim>
					<dim>160</dim>
				</port>
			</output>
		</layer>
		<layer id="70" name="model.2.m.0.cv2.conv.weight" type="Const" version="opset1">
			<data element_type="i8" shape="16, 16, 3, 3" offset="9232" size="2304" />
			<rt_info>
				<attribute name="fused_names" version="0" value="model.2.m.0.cv2.conv.weight" />
			</rt_info>
			<output>
				<port id="0" precision="I8">
					<dim>16</dim>
					<dim>16</dim>
					<dim>3</dim>
					<dim>3</dim>
				</port>
			</output>
		</layer>
		<layer id="71" name="Convert_274564" type="Convert" version="opset1">
			<data destination_type="f32" />
			<rt_info>
				<attribute name="fused_names" version="0" value="model.2.m.0.cv2.conv.weight" />
			</rt_info>
			<input>
				<port id="0" precision="I8">
					<dim>16</dim>
					<dim>16</dim>
					<dim>3</dim>
					<dim>3</dim>
				</port>
			</input>
			<output>
				<port id="1" precision="FP32">
					<dim>16</dim>
					<dim>16</dim>
					<dim>3</dim>
					<dim>3</dim>
				</port>
			</output>
		</layer>
		<layer id="72" name="Constant_274462" type="Const" version="opset1">
			<data element_type="f32" shape="16, 1, 1, 1" offset="11536" size="64" />
			<rt_info>
				<attribute name="fused_names" version="0" value="model.2.m.0.cv2.conv.weight" />
			</rt_info>
			<output>
				<port id="0" precision="FP32">
					<dim>16</dim>
					<dim>1</dim>
					<dim>1</dim>
					<dim>1</dim>
				</port>
			</output>
		</layer>
		<layer id="73" name="/model.2/m.0/cv2/conv/Conv/WithoutBiases/fq_weights_1" type="Multiply" version="opset1">
			<data auto_broadcast="numpy" />
			<rt_info>
				<attribute name="fused_names" version="0" value="model.2.m.0.cv2.conv.weight" />
			</rt_info>
			<input>
				<port id="0" precision="FP32">
					<dim>16</dim>
					<dim>16</dim>
					<dim>3</dim>
					<dim>3</dim>
				</port>
				<port id="1" precision="FP32">
					<dim>16</dim>
					<dim>1</dim>
					<dim>1</dim>
					<dim>1</dim>
				</port>
			</input>
			<output>
				<port id="2" precision="FP32">
					<dim>16</dim>
					<dim>16</dim>
					<dim>3</dim>
					<dim>3</dim>
				</port>
			</output>
		</layer>
		<layer id="74" name="/model.2/m.0/cv2/conv/Conv/WithoutBiases" type="Convolution" version="opset1">
			<data strides="1, 1" dilations="1, 1" pads_begin="1, 1" pads_end="1, 1" auto_pad="explicit" />
			<rt_info>
				<attribute name="fused_names" version="0" value="/model.2/m.0/cv2/conv/Conv/WithoutBiases" />
			</rt_info>
			<input>
				<port id="0" precision="FP32">
					<dim>1</dim>
					<dim>16</dim>
					<dim>160</dim>
					<dim>160</dim>
				</port>
				<port id="1" precision="FP32">
					<dim>16</dim>
					<dim>16</dim>
					<dim>3</dim>
					<dim>3</dim>
				</port>
			</input>
			<output>
				<port id="2" precision="FP32">
					<dim>1</dim>
					<dim>16</dim>
					<dim>160</dim>
					<dim>160</dim>
				</port>
			</output>
		</layer>
		<layer id="75" name="Reshape_211" type="Const" version="opset1">
			<data element_type="f32" shape="1, 16, 1, 1" offset="11600" size="64" />
			<rt_info>
				<attribute name="fused_names" version="0" value="Reshape_211" />
			</rt_info>
			<output>
				<port id="0" precision="FP32">
					<dim>1</dim>
					<dim>16</dim>
					<dim>1</dim>
					<dim>1</dim>
				</port>
			</output>
		</layer>
		<layer id="76" name="/model.2/m.0/cv2/conv/Conv" type="Add" version="opset1">
			<data auto_broadcast="numpy" />
			<rt_info>
				<attribute name="fused_names" version="0" value="/model.2/m.0/cv2/conv/Conv" />
			</rt_info>
			<input>
				<port id="0" precision="FP32">
					<dim>1</dim>
					<dim>16</dim>
					<dim>160</dim>
					<dim>160</dim>
				</port>
				<port id="1" precision="FP32">
					<dim>1</dim>
					<dim>16</dim>
					<dim>1</dim>
					<dim>1</dim>
				</port>
			</input>
			<output>
				<port id="2" precision="FP32" names="/model.2/m.0/cv2/conv/Conv_output_0">
					<dim>1</dim>
					<dim>16</dim>
					<dim>160</dim>
					<dim>160</dim>
				</port>
			</output>
		</layer>
		<layer id="77" name="/model.2/m.0/cv2/act/Mul" type="Swish" version="opset4">
			<rt_info>
				<attribute name="fused_names" version="0" value="/model.2/m.0/cv2/act/Mul" />
			</rt_info>
			<input>
				<port id="0" precision="FP32">
					<dim>1</dim>
					<dim>16</dim>
					<dim>160</dim>
					<dim>160</dim>
				</port>
			</input>
			<output>
				<port id="1" precision="FP32" names="/model.2/m.0/cv2/act/Mul_output_0">
					<dim>1</dim>
					<dim>16</dim>
					<dim>160</dim>
					<dim>160</dim>
				</port>
			</output>
		</layer>
		<layer id="78" name="Constant_37012" type="Const" version="opset1">
			<data element_type="f32" shape="" offset="9224" size="4" />
			<rt_info>
				<attribute name="fused_names" version="0" value="Constant_37012" />
			</rt_info>
			<output>
				<port id="0" precision="FP32" />
			</output>
		</layer>
		<layer id="79" name="Constant_37013" type="Const" version="opset1">
			<data element_type="f32" shape="" offset="9228" size="4" />
			<rt_info>
				<attribute name="fused_names" version="0" value="Constant_37013" />
			</rt_info>
			<output>
				<port id="0" precision="FP32" />
			</output>
		</layer>
		<layer id="80" name="Constant_37014" type="Const" version="opset1">
			<data element_type="f32" shape="" offset="9224" size="4" />
			<rt_info>
				<attribute name="fused_names" version="0" value="Constant_37014" />
			</rt_info>
			<output>
				<port id="0" precision="FP32" />
			</output>
		</layer>
		<layer id="81" name="Constant_37015" type="Const" version="opset1">
			<data element_type="f32" shape="" offset="9228" size="4" />
			<rt_info>
				<attribute name="fused_names" version="0" value="Constant_37015" />
			</rt_info>
			<output>
				<port id="0" precision="FP32" />
			</output>
		</layer>
		<layer id="82" name="/model.2/m.0/cv2/act/Mul/fq_output_0" type="FakeQuantize" version="opset1">
			<data levels="256" auto_broadcast="numpy" />
			<rt_info>
				<attribute name="fused_names" version="0" value="/model.2/m.0/cv2/act/Mul/fq_output_0" />
			</rt_info>
			<input>
				<port id="0" precision="FP32">
					<dim>1</dim>
					<dim>16</dim>
					<dim>160</dim>
					<dim>160</dim>
				</port>
				<port id="1" precision="FP32" />
				<port id="2" precision="FP32" />
				<port id="3" precision="FP32" />
				<port id="4" precision="FP32" />
			</input>
			<output>
				<port id="5" precision="FP32">
					<dim>1</dim>
					<dim>16</dim>
					<dim>160</dim>
					<dim>160</dim>
				</port>
			</output>
		</layer>
		<layer id="83" name="/model.2/m.0/Add" type="Add" version="opset1">
			<data auto_broadcast="numpy" />
			<rt_info>
				<attribute name="fused_names" version="0" value="/model.2/m.0/Add" />
			</rt_info>
			<input>
				<port id="0" precision="FP32">
					<dim>1</dim>
					<dim>16</dim>
					<dim>160</dim>
					<dim>160</dim>
				</port>
				<port id="1" precision="FP32">
					<dim>1</dim>
					<dim>16</dim>
					<dim>160</dim>
					<dim>160</dim>
				</port>
			</input>
			<output>
				<port id="2" precision="FP32" names="/model.2/m.0/Add_output_0">
					<dim>1</dim>
					<dim>16</dim>
					<dim>160</dim>
					<dim>160</dim>
				</port>
			</output>
		</layer>
		<layer id="84" name="Constant_36832" type="Const" version="opset1">
			<data element_type="f32" shape="" offset="6760" size="4" />
			<rt_info>
				<attribute name="fused_names" version="0" value="Constant_36832" />
			</rt_info>
			<output>
				<port id="0" precision="FP32" />
			</output>
		</layer>
		<layer id="85" name="Constant_36833" type="Const" version="opset1">
			<data element_type="f32" shape="" offset="6764" size="4" />
			<rt_info>
				<attribute name="fused_names" version="0" value="Constant_36833" />
			</rt_info>
			<output>
				<port id="0" precision="FP32" />
			</output>
		</layer>
		<layer id="86" name="Constant_36834" type="Const" version="opset1">
			<data element_type="f32" shape="" offset="6760" size="4" />
			<rt_info>
				<attribute name="fused_names" version="0" value="Constant_36834" />
			</rt_info>
			<output>
				<port id="0" precision="FP32" />
			</output>
		</layer>
		<layer id="87" name="Constant_36835" type="Const" version="opset1">
			<data element_type="f32" shape="" offset="6764" size="4" />
			<rt_info>
				<attribute name="fused_names" version="0" value="Constant_36835" />
			</rt_info>
			<output>
				<port id="0" precision="FP32" />
			</output>
		</layer>
		<layer id="88" name="/model.2/m.0/Add/fq_output_0" type="FakeQuantize" version="opset1">
			<data levels="256" auto_broadcast="numpy" />
			<rt_info>
				<attribute name="fused_names" version="0" value="/model.2/m.0/Add/fq_output_0" />
			</rt_info>
			<input>
				<port id="0" precision="FP32">
					<dim>1</dim>
					<dim>16</dim>
					<dim>160</dim>
					<dim>160</dim>
				</port>
				<port id="1" precision="FP32" />
				<port id="2" precision="FP32" />
				<port id="3" precision="FP32" />
				<port id="4" precision="FP32" />
			</input>
			<output>
				<port id="5" precision="FP32">
					<dim>1</dim>
					<dim>16</dim>
					<dim>160</dim>
					<dim>160</dim>
				</port>
			</output>
		</layer>
		<layer id="89" name="/model.2/Concat" type="Concat" version="opset1">
			<data axis="1" />
			<rt_info>
				<attribute name="fused_names" version="0" value="/model.2/Concat" />
			</rt_info>
			<input>
				<port id="0" precision="FP32">
					<dim>1</dim>
					<dim>16</dim>
					<dim>160</dim>
					<dim>160</dim>
				</port>
				<port id="1" precision="FP32">
					<dim>1</dim>
					<dim>16</dim>
					<dim>160</dim>
					<dim>160</dim>
				</port>
				<port id="2" precision="FP32">
					<dim>1</dim>
					<dim>16</dim>
					<dim>160</dim>
					<dim>160</dim>
				</port>
			</input>
			<output>
				<port id="3" precision="FP32" names="/model.2/Concat_output_0">
					<dim>1</dim>
					<dim>48</dim>
					<dim>160</dim>
					<dim>160</dim>
				</port>
			</output>
		</layer>
		<layer id="90" name="model.2.cv2.conv.weight" type="Const" version="opset1">
			<data element_type="i8" shape="32, 48, 1, 1" offset="11664" size="1536" />
			<rt_info>
				<attribute name="fused_names" version="0" value="model.2.cv2.conv.weight" />
			</rt_info>
			<output>
				<port id="0" precision="I8">
					<dim>32</dim>
					<dim>48</dim>
					<dim>1</dim>
					<dim>1</dim>
				</port>
			</output>
		</layer>
		<layer id="91" name="Convert_274718" type="Convert" version="opset1">
			<data destination_type="f32" />
			<rt_info>
				<attribute name="fused_names" version="0" value="model.2.cv2.conv.weight" />
			</rt_info>
			<input>
				<port id="0" precision="I8">
					<dim>32</dim>
					<dim>48</dim>
					<dim>1</dim>
					<dim>1</dim>
				</port>
			</input>
			<output>
				<port id="1" precision="FP32">
					<dim>32</dim>
					<dim>48</dim>
					<dim>1</dim>
					<dim>1</dim>
				</port>
			</output>
		</layer>
		<layer id="92" name="Constant_274616" type="Const" version="opset1">
			<data element_type="f32" shape="32, 1, 1, 1" offset="13200" size="128" />
			<rt_info>
				<attribute name="fused_names" version="0" value="model.2.cv2.conv.weight" />
			</rt_info>
			<output>
				<port id="0" precision="FP32">
					<dim>32</dim>
					<dim>1</dim>
					<dim>1</dim>
					<dim>1</dim>
				</port>
			</output>
		</layer>
		<layer id="93" name="/model.2/cv2/conv/Conv/WithoutBiases/fq_weights_1" type="Multiply" version="opset1">
			<data auto_broadcast="numpy" />
			<rt_info>
				<attribute name="fused_names" version="0" value="model.2.cv2.conv.weight" />
			</rt_info>
			<input>
				<port id="0" precision="FP32">
					<dim>32</dim>
					<dim>48</dim>
					<dim>1</dim>
					<dim>1</dim>
				</port>
				<port id="1" precision="FP32">
					<dim>32</dim>
					<dim>1</dim>
					<dim>1</dim>
					<dim>1</dim>
				</port>
			</input>
			<output>
				<port id="2" precision="FP32">
					<dim>32</dim>
					<dim>48</dim>
					<dim>1</dim>
					<dim>1</dim>
				</port>
			</output>
		</layer>
		<layer id="94" name="/model.2/cv2/conv/Conv/WithoutBiases" type="Convolution" version="opset1">
			<data strides="1, 1" dilations="1, 1" pads_begin="0, 0" pads_end="0, 0" auto_pad="explicit" />
			<rt_info>
				<attribute name="fused_names" version="0" value="/model.2/cv2/conv/Conv/WithoutBiases" />
			</rt_info>
			<input>
				<port id="0" precision="FP32">
					<dim>1</dim>
					<dim>48</dim>
					<dim>160</dim>
					<dim>160</dim>
				</port>
				<port id="1" precision="FP32">
					<dim>32</dim>
					<dim>48</dim>
					<dim>1</dim>
					<dim>1</dim>
				</port>
			</input>
			<output>
				<port id="2" precision="FP32">
					<dim>1</dim>
					<dim>32</dim>
					<dim>160</dim>
					<dim>160</dim>
				</port>
			</output>
		</layer>
		<layer id="95" name="Reshape_230" type="Const" version="opset1">
			<data element_type="f32" shape="1, 32, 1, 1" offset="13328" size="128" />
			<rt_info>
				<attribute name="fused_names" version="0" value="Reshape_230" />
			</rt_info>
			<output>
				<port id="0" precision="FP32">
					<dim>1</dim>
					<dim>32</dim>
					<dim>1</dim>
					<dim>1</dim>
				</port>
			</output>
		</layer>
		<layer id="96" name="/model.2/cv2/conv/Conv" type="Add" version="opset1">
			<data auto_broadcast="numpy" />
			<rt_info>
				<attribute name="fused_names" version="0" value="/model.2/cv2/conv/Conv" />
			</rt_info>
			<input>
				<port id="0" precision="FP32">
					<dim>1</dim>
					<dim>32</dim>
					<dim>160</dim>
					<dim>160</dim>
				</port>
				<port id="1" precision="FP32">
					<dim>1</dim>
					<dim>32</dim>
					<dim>1</dim>
					<dim>1</dim>
				</port>
			</input>
			<output>
				<port id="2" precision="FP32" names="/model.2/cv2/conv/Conv_output_0">
					<dim>1</dim>
					<dim>32</dim>
					<dim>160</dim>
					<dim>160</dim>
				</port>
			</output>
		</layer>
		<layer id="97" name="/model.2/cv2/act/Mul" type="Swish" version="opset4">
			<rt_info>
				<attribute name="fused_names" version="0" value="/model.2/cv2/act/Mul" />
			</rt_info>
			<input>
				<port id="0" precision="FP32">
					<dim>1</dim>
					<dim>32</dim>
					<dim>160</dim>
					<dim>160</dim>
				</port>
			</input>
			<output>
				<port id="1" precision="FP32" names="/model.2/cv2/act/Mul_output_0">
					<dim>1</dim>
					<dim>32</dim>
					<dim>160</dim>
					<dim>160</dim>
				</port>
			</output>
		</layer>
		<layer id="98" name="Constant_37022" type="Const" version="opset1">
			<data element_type="f32" shape="" offset="13456" size="4" />
			<rt_info>
				<attribute name="fused_names" version="0" value="Constant_37022" />
			</rt_info>
			<output>
				<port id="0" precision="FP32" />
			</output>
		</layer>
		<layer id="99" name="Constant_37023" type="Const" version="opset1">
			<data element_type="f32" shape="" offset="13460" size="4" />
			<rt_info>
				<attribute name="fused_names" version="0" value="Constant_37023" />
			</rt_info>
			<output>
				<port id="0" precision="FP32" />
			</output>
		</layer>
		<layer id="100" name="Constant_37024" type="Const" version="opset1">
			<data element_type="f32" shape="" offset="13456" size="4" />
			<rt_info>
				<attribute name="fused_names" version="0" value="Constant_37024" />
			</rt_info>
			<output>
				<port id="0" precision="FP32" />
			</output>
		</layer>
		<layer id="101" name="Constant_37025" type="Const" version="opset1">
			<data element_type="f32" shape="" offset="13460" size="4" />
			<rt_info>
				<attribute name="fused_names" version="0" value="Constant_37025" />
			</rt_info>
			<output>
				<port id="0" precision="FP32" />
			</output>
		</layer>
		<layer id="102" name="/model.2/cv2/act/Mul/fq_output_0" type="FakeQuantize" version="opset1">
			<data levels="256" auto_broadcast="numpy" />
			<rt_info>
				<attribute name="fused_names" version="0" value="/model.2/cv2/act/Mul/fq_output_0" />
			</rt_info>
			<input>
				<port id="0" precision="FP32">
					<dim>1</dim>
					<dim>32</dim>
					<dim>160</dim>
					<dim>160</dim>
				</port>
				<port id="1" precision="FP32" />
				<port id="2" precision="FP32" />
				<port id="3" precision="FP32" />
				<port id="4" precision="FP32" />
			</input>
			<output>
				<port id="5" precision="FP32">
					<dim>1</dim>
					<dim>32</dim>
					<dim>160</dim>
					<dim>160</dim>
				</port>
			</output>
		</layer>
		<layer id="103" name="model.3.conv.weight" type="Const" version="opset1">
			<data element_type="i8" shape="64, 32, 3, 3" offset="13464" size="18432" />
			<rt_info>
				<attribute name="fused_names" version="0" value="model.3.conv.weight" />
			</rt_info>
			<output>
				<port id="0" precision="I8">
					<dim>64</dim>
					<dim>32</dim>
					<dim>3</dim>
					<dim>3</dim>
				</port>
			</output>
		</layer>
		<layer id="104" name="Convert_274872" type="Convert" version="opset1">
			<data destination_type="f32" />
			<rt_info>
				<attribute name="fused_names" version="0" value="model.3.conv.weight" />
			</rt_info>
			<input>
				<port id="0" precision="I8">
					<dim>64</dim>
					<dim>32</dim>
					<dim>3</dim>
					<dim>3</dim>
				</port>
			</input>
			<output>
				<port id="1" precision="FP32">
					<dim>64</dim>
					<dim>32</dim>
					<dim>3</dim>
					<dim>3</dim>
				</port>
			</output>
		</layer>
		<layer id="105" name="Constant_274770" type="Const" version="opset1">
			<data element_type="f32" shape="64, 1, 1, 1" offset="31896" size="256" />
			<rt_info>
				<attribute name="fused_names" version="0" value="model.3.conv.weight" />
			</rt_info>
			<output>
				<port id="0" precision="FP32">
					<dim>64</dim>
					<dim>1</dim>
					<dim>1</dim>
					<dim>1</dim>
				</port>
			</output>
		</layer>
		<layer id="106" name="/model.3/conv/Conv/WithoutBiases/fq_weights_1" type="Multiply" version="opset1">
			<data auto_broadcast="numpy" />
			<rt_info>
				<attribute name="fused_names" version="0" value="model.3.conv.weight" />
			</rt_info>
			<input>
				<port id="0" precision="FP32">
					<dim>64</dim>
					<dim>32</dim>
					<dim>3</dim>
					<dim>3</dim>
				</port>
				<port id="1" precision="FP32">
					<dim>64</dim>
					<dim>1</dim>
					<dim>1</dim>
					<dim>1</dim>
				</port>
			</input>
			<output>
				<port id="2" precision="FP32">
					<dim>64</dim>
					<dim>32</dim>
					<dim>3</dim>
					<dim>3</dim>
				</port>
			</output>
		</layer>
		<layer id="107" name="/model.3/conv/Conv/WithoutBiases" type="Convolution" version="opset1">
			<data strides="2, 2" dilations="1, 1" pads_begin="1, 1" pads_end="1, 1" auto_pad="explicit" />
			<rt_info>
				<attribute name="fused_names" version="0" value="/model.3/conv/Conv/WithoutBiases" />
			</rt_info>
			<input>
				<port id="0" precision="FP32">
					<dim>1</dim>
					<dim>32</dim>
					<dim>160</dim>
					<dim>160</dim>
				</port>
				<port id="1" precision="FP32">
					<dim>64</dim>
					<dim>32</dim>
					<dim>3</dim>
					<dim>3</dim>
				</port>
			</input>
			<output>
				<port id="2" precision="FP32">
					<dim>1</dim>
					<dim>64</dim>
					<dim>80</dim>
					<dim>80</dim>
				</port>
			</output>
		</layer>
		<layer id="108" name="Reshape_247" type="Const" version="opset1">
			<data element_type="f32" shape="1, 64, 1, 1" offset="32152" size="256" />
			<rt_info>
				<attribute name="fused_names" version="0" value="Reshape_247" />
			</rt_info>
			<output>
				<port id="0" precision="FP32">
					<dim>1</dim>
					<dim>64</dim>
					<dim>1</dim>
					<dim>1</dim>
				</port>
			</output>
		</layer>
		<layer id="109" name="/model.3/conv/Conv" type="Add" version="opset1">
			<data auto_broadcast="numpy" />
			<rt_info>
				<attribute name="fused_names" version="0" value="/model.3/conv/Conv" />
			</rt_info>
			<input>
				<port id="0" precision="FP32">
					<dim>1</dim>
					<dim>64</dim>
					<dim>80</dim>
					<dim>80</dim>
				</port>
				<port id="1" precision="FP32">
					<dim>1</dim>
					<dim>64</dim>
					<dim>1</dim>
					<dim>1</dim>
				</port>
			</input>
			<output>
				<port id="2" precision="FP32" names="/model.3/conv/Conv_output_0">
					<dim>1</dim>
					<dim>64</dim>
					<dim>80</dim>
					<dim>80</dim>
				</port>
			</output>
		</layer>
		<layer id="110" name="/model.3/act/Mul" type="Swish" version="opset4">
			<rt_info>
				<attribute name="fused_names" version="0" value="/model.3/act/Mul" />
			</rt_info>
			<input>
				<port id="0" precision="FP32">
					<dim>1</dim>
					<dim>64</dim>
					<dim>80</dim>
					<dim>80</dim>
				</port>
			</input>
			<output>
				<port id="1" precision="FP32" names="/model.3/act/Mul_output_0">
					<dim>1</dim>
					<dim>64</dim>
					<dim>80</dim>
					<dim>80</dim>
				</port>
			</output>
		</layer>
		<layer id="111" name="Constant_37032" type="Const" version="opset1">
			<data element_type="f32" shape="" offset="32408" size="4" />
			<rt_info>
				<attribute name="fused_names" version="0" value="Constant_37032" />
			</rt_info>
			<output>
				<port id="0" precision="FP32" />
			</output>
		</layer>
		<layer id="112" name="Constant_37033" type="Const" version="opset1">
			<data element_type="f32" shape="" offset="32412" size="4" />
			<rt_info>
				<attribute name="fused_names" version="0" value="Constant_37033" />
			</rt_info>
			<output>
				<port id="0" precision="FP32" />
			</output>
		</layer>
		<layer id="113" name="Constant_37034" type="Const" version="opset1">
			<data element_type="f32" shape="" offset="32408" size="4" />
			<rt_info>
				<attribute name="fused_names" version="0" value="Constant_37034" />
			</rt_info>
			<output>
				<port id="0" precision="FP32" />
			</output>
		</layer>
		<layer id="114" name="Constant_37035" type="Const" version="opset1">
			<data element_type="f32" shape="" offset="32412" size="4" />
			<rt_info>
				<attribute name="fused_names" version="0" value="Constant_37035" />
			</rt_info>
			<output>
				<port id="0" precision="FP32" />
			</output>
		</layer>
		<layer id="115" name="/model.3/act/Mul/fq_output_0" type="FakeQuantize" version="opset1">
			<data levels="256" auto_broadcast="numpy" />
			<rt_info>
				<attribute name="fused_names" version="0" value="/model.3/act/Mul/fq_output_0" />
			</rt_info>
			<input>
				<port id="0" precision="FP32">
					<dim>1</dim>
					<dim>64</dim>
					<dim>80</dim>
					<dim>80</dim>
				</port>
				<port id="1" precision="FP32" />
				<port id="2" precision="FP32" />
				<port id="3" precision="FP32" />
				<port id="4" precision="FP32" />
			</input>
			<output>
				<port id="5" precision="FP32">
					<dim>1</dim>
					<dim>64</dim>
					<dim>80</dim>
					<dim>80</dim>
				</port>
			</output>
		</layer>
		<layer id="116" name="model.4.cv1.conv.weight" type="Const" version="opset1">
			<data element_type="i8" shape="64, 64, 1, 1" offset="32416" size="4096" />
			<rt_info>
				<attribute name="fused_names" version="0" value="model.4.cv1.conv.weight" />
			</rt_info>
			<output>
				<port id="0" precision="I8">
					<dim>64</dim>
					<dim>64</dim>
					<dim>1</dim>
					<dim>1</dim>
				</port>
			</output>
		</layer>
		<layer id="117" name="Convert_275026" type="Convert" version="opset1">
			<data destination_type="f32" />
			<rt_info>
				<attribute name="fused_names" version="0" value="model.4.cv1.conv.weight" />
			</rt_info>
			<input>
				<port id="0" precision="I8">
					<dim>64</dim>
					<dim>64</dim>
					<dim>1</dim>
					<dim>1</dim>
				</port>
			</input>
			<output>
				<port id="1" precision="FP32">
					<dim>64</dim>
					<dim>64</dim>
					<dim>1</dim>
					<dim>1</dim>
				</port>
			</output>
		</layer>
		<layer id="118" name="Constant_274924" type="Const" version="opset1">
			<data element_type="f32" shape="64, 1, 1, 1" offset="36512" size="256" />
			<rt_info>
				<attribute name="fused_names" version="0" value="model.4.cv1.conv.weight" />
			</rt_info>
			<output>
				<port id="0" precision="FP32">
					<dim>64</dim>
					<dim>1</dim>
					<dim>1</dim>
					<dim>1</dim>
				</port>
			</output>
		</layer>
		<layer id="119" name="/model.4/cv1/conv/Conv/WithoutBiases/fq_weights_1" type="Multiply" version="opset1">
			<data auto_broadcast="numpy" />
			<rt_info>
				<attribute name="fused_names" version="0" value="model.4.cv1.conv.weight" />
			</rt_info>
			<input>
				<port id="0" precision="FP32">
					<dim>64</dim>
					<dim>64</dim>
					<dim>1</dim>
					<dim>1</dim>
				</port>
				<port id="1" precision="FP32">
					<dim>64</dim>
					<dim>1</dim>
					<dim>1</dim>
					<dim>1</dim>
				</port>
			</input>
			<output>
				<port id="2" precision="FP32">
					<dim>64</dim>
					<dim>64</dim>
					<dim>1</dim>
					<dim>1</dim>
				</port>
			</output>
		</layer>
		<layer id="120" name="/model.4/cv1/conv/Conv/WithoutBiases" type="Convolution" version="opset1">
			<data strides="1, 1" dilations="1, 1" pads_begin="0, 0" pads_end="0, 0" auto_pad="explicit" />
			<rt_info>
				<attribute name="fused_names" version="0" value="/model.4/cv1/conv/Conv/WithoutBiases" />
			</rt_info>
			<input>
				<port id="0" precision="FP32">
					<dim>1</dim>
					<dim>64</dim>
					<dim>80</dim>
					<dim>80</dim>
				</port>
				<port id="1" precision="FP32">
					<dim>64</dim>
					<dim>64</dim>
					<dim>1</dim>
					<dim>1</dim>
				</port>
			</input>
			<output>
				<port id="2" precision="FP32">
					<dim>1</dim>
					<dim>64</dim>
					<dim>80</dim>
					<dim>80</dim>
				</port>
			</output>
		</layer>
		<layer id="121" name="Reshape_264" type="Const" version="opset1">
			<data element_type="f32" shape="1, 64, 1, 1" offset="36768" size="256" />
			<rt_info>
				<attribute name="fused_names" version="0" value="Reshape_264" />
			</rt_info>
			<output>
				<port id="0" precision="FP32">
					<dim>1</dim>
					<dim>64</dim>
					<dim>1</dim>
					<dim>1</dim>
				</port>
			</output>
		</layer>
		<layer id="122" name="/model.4/cv1/conv/Conv" type="Add" version="opset1">
			<data auto_broadcast="numpy" />
			<rt_info>
				<attribute name="fused_names" version="0" value="/model.4/cv1/conv/Conv" />
			</rt_info>
			<input>
				<port id="0" precision="FP32">
					<dim>1</dim>
					<dim>64</dim>
					<dim>80</dim>
					<dim>80</dim>
				</port>
				<port id="1" precision="FP32">
					<dim>1</dim>
					<dim>64</dim>
					<dim>1</dim>
					<dim>1</dim>
				</port>
			</input>
			<output>
				<port id="2" precision="FP32" names="/model.4/cv1/conv/Conv_output_0">
					<dim>1</dim>
					<dim>64</dim>
					<dim>80</dim>
					<dim>80</dim>
				</port>
			</output>
		</layer>
		<layer id="123" name="/model.4/cv1/act/Mul" type="Swish" version="opset4">
			<rt_info>
				<attribute name="fused_names" version="0" value="/model.4/cv1/act/Mul" />
			</rt_info>
			<input>
				<port id="0" precision="FP32">
					<dim>1</dim>
					<dim>64</dim>
					<dim>80</dim>
					<dim>80</dim>
				</port>
			</input>
			<output>
				<port id="1" precision="FP32" names="/model.4/cv1/act/Mul_output_0">
					<dim>1</dim>
					<dim>64</dim>
					<dim>80</dim>
					<dim>80</dim>
				</port>
			</output>
		</layer>
		<layer id="124" name="Constant_36847" type="Const" version="opset1">
			<data element_type="f32" shape="" offset="37024" size="4" />
			<rt_info>
				<attribute name="fused_names" version="0" value="Constant_36847" />
			</rt_info>
			<output>
				<port id="0" precision="FP32" />
			</output>
		</layer>
		<layer id="125" name="Constant_36848" type="Const" version="opset1">
			<data element_type="f32" shape="" offset="37028" size="4" />
			<rt_info>
				<attribute name="fused_names" version="0" value="Constant_36848" />
			</rt_info>
			<output>
				<port id="0" precision="FP32" />
			</output>
		</layer>
		<layer id="126" name="Constant_36849" type="Const" version="opset1">
			<data element_type="f32" shape="" offset="37024" size="4" />
			<rt_info>
				<attribute name="fused_names" version="0" value="Constant_36849" />
			</rt_info>
			<output>
				<port id="0" precision="FP32" />
			</output>
		</layer>
		<layer id="127" name="Constant_36850" type="Const" version="opset1">
			<data element_type="f32" shape="" offset="37028" size="4" />
			<rt_info>
				<attribute name="fused_names" version="0" value="Constant_36850" />
			</rt_info>
			<output>
				<port id="0" precision="FP32" />
			</output>
		</layer>
		<layer id="128" name="/model.4/cv1/act/Mul/fq_output_0" type="FakeQuantize" version="opset1">
			<data levels="256" auto_broadcast="numpy" />
			<rt_info>
				<attribute name="fused_names" version="0" value="/model.4/cv1/act/Mul/fq_output_0" />
			</rt_info>
			<input>
				<port id="0" precision="FP32">
					<dim>1</dim>
					<dim>64</dim>
					<dim>80</dim>
					<dim>80</dim>
				</port>
				<port id="1" precision="FP32" />
				<port id="2" precision="FP32" />
				<port id="3" precision="FP32" />
				<port id="4" precision="FP32" />
			</input>
			<output>
				<port id="5" precision="FP32">
					<dim>1</dim>
					<dim>64</dim>
					<dim>80</dim>
					<dim>80</dim>
				</port>
			</output>
		</layer>
		<layer id="129" name="Constant_271" type="Const" version="opset1">
			<data element_type="i64" shape="" offset="6768" size="8" />
			<rt_info>
				<attribute name="fused_names" version="0" value="Constant_271" />
			</rt_info>
			<output>
				<port id="0" precision="I64" />
			</output>
		</layer>
		<layer id="130" name="Constant_28" type="Const" version="opset1">
			<data element_type="i64" shape="2" offset="37032" size="16" />
			<rt_info>
				<attribute name="fused_names" version="0" value="Constant_28" />
			</rt_info>
			<output>
				<port id="0" precision="I64" names="onnx::Split_161">
					<dim>2</dim>
				</port>
			</output>
		</layer>
		<layer id="131" name="/model.4/Split" type="VariadicSplit" version="opset1">
			<rt_info>
				<attribute name="fused_names" version="0" value="/model.4/Split" />
			</rt_info>
			<input>
				<port id="0" precision="FP32">
					<dim>1</dim>
					<dim>64</dim>
					<dim>80</dim>
					<dim>80</dim>
				</port>
				<port id="1" precision="I64" />
				<port id="2" precision="I64">
					<dim>2</dim>
				</port>
			</input>
			<output>
				<port id="3" precision="FP32" names="/model.4/Split_output_0">
					<dim>1</dim>
					<dim>32</dim>
					<dim>80</dim>
					<dim>80</dim>
				</port>
				<port id="4" precision="FP32" names="/model.4/Split_output_1">
					<dim>1</dim>
					<dim>32</dim>
					<dim>80</dim>
					<dim>80</dim>
				</port>
			</output>
		</layer>
		<layer id="132" name="model.4.m.0.cv1.conv.weight" type="Const" version="opset1">
			<data element_type="i8" shape="32, 32, 3, 3" offset="37048" size="9216" />
			<rt_info>
				<attribute name="fused_names" version="0" value="model.4.m.0.cv1.conv.weight" />
			</rt_info>
			<output>
				<port id="0" precision="I8">
					<dim>32</dim>
					<dim>32</dim>
					<dim>3</dim>
					<dim>3</dim>
				</port>
			</output>
		</layer>
		<layer id="133" name="Convert_275180" type="Convert" version="opset1">
			<data destination_type="f32" />
			<rt_info>
				<attribute name="fused_names" version="0" value="model.4.m.0.cv1.conv.weight" />
			</rt_info>
			<input>
				<port id="0" precision="I8">
					<dim>32</dim>
					<dim>32</dim>
					<dim>3</dim>
					<dim>3</dim>
				</port>
			</input>
			<output>
				<port id="1" precision="FP32">
					<dim>32</dim>
					<dim>32</dim>
					<dim>3</dim>
					<dim>3</dim>
				</port>
			</output>
		</layer>
		<layer id="134" name="Constant_275078" type="Const" version="opset1">
			<data element_type="f32" shape="32, 1, 1, 1" offset="46264" size="128" />
			<rt_info>
				<attribute name="fused_names" version="0" value="model.4.m.0.cv1.conv.weight" />
			</rt_info>
			<output>
				<port id="0" precision="FP32">
					<dim>32</dim>
					<dim>1</dim>
					<dim>1</dim>
					<dim>1</dim>
				</port>
			</output>
		</layer>
		<layer id="135" name="/model.4/m.0/cv1/conv/Conv/WithoutBiases/fq_weights_1" type="Multiply" version="opset1">
			<data auto_broadcast="numpy" />
			<rt_info>
				<attribute name="fused_names" version="0" value="model.4.m.0.cv1.conv.weight" />
			</rt_info>
			<input>
				<port id="0" precision="FP32">
					<dim>32</dim>
					<dim>32</dim>
					<dim>3</dim>
					<dim>3</dim>
				</port>
				<port id="1" precision="FP32">
					<dim>32</dim>
					<dim>1</dim>
					<dim>1</dim>
					<dim>1</dim>
				</port>
			</input>
			<output>
				<port id="2" precision="FP32">
					<dim>32</dim>
					<dim>32</dim>
					<dim>3</dim>
					<dim>3</dim>
				</port>
			</output>
		</layer>
		<layer id="136" name="/model.4/m.0/cv1/conv/Conv/WithoutBiases" type="Convolution" version="opset1">
			<data strides="1, 1" dilations="1, 1" pads_begin="1, 1" pads_end="1, 1" auto_pad="explicit" />
			<rt_info>
				<attribute name="fused_names" version="0" value="/model.4/m.0/cv1/conv/Conv/WithoutBiases" />
			</rt_info>
			<input>
				<port id="0" precision="FP32">
					<dim>1</dim>
					<dim>32</dim>
					<dim>80</dim>
					<dim>80</dim>
				</port>
				<port id="1" precision="FP32">
					<dim>32</dim>
					<dim>32</dim>
					<dim>3</dim>
					<dim>3</dim>
				</port>
			</input>
			<output>
				<port id="2" precision="FP32">
					<dim>1</dim>
					<dim>32</dim>
					<dim>80</dim>
					<dim>80</dim>
				</port>
			</output>
		</layer>
		<layer id="137" name="Reshape_284" type="Const" version="opset1">
			<data element_type="f32" shape="1, 32, 1, 1" offset="46392" size="128" />
			<rt_info>
				<attribute name="fused_names" version="0" value="Reshape_284" />
			</rt_info>
			<output>
				<port id="0" precision="FP32">
					<dim>1</dim>
					<dim>32</dim>
					<dim>1</dim>
					<dim>1</dim>
				</port>
			</output>
		</layer>
		<layer id="138" name="/model.4/m.0/cv1/conv/Conv" type="Add" version="opset1">
			<data auto_broadcast="numpy" />
			<rt_info>
				<attribute name="fused_names" version="0" value="/model.4/m.0/cv1/conv/Conv" />
			</rt_info>
			<input>
				<port id="0" precision="FP32">
					<dim>1</dim>
					<dim>32</dim>
					<dim>80</dim>
					<dim>80</dim>
				</port>
				<port id="1" precision="FP32">
					<dim>1</dim>
					<dim>32</dim>
					<dim>1</dim>
					<dim>1</dim>
				</port>
			</input>
			<output>
				<port id="2" precision="FP32" names="/model.4/m.0/cv1/conv/Conv_output_0">
					<dim>1</dim>
					<dim>32</dim>
					<dim>80</dim>
					<dim>80</dim>
				</port>
			</output>
		</layer>
		<layer id="139" name="/model.4/m.0/cv1/act/Mul" type="Swish" version="opset4">
			<rt_info>
				<attribute name="fused_names" version="0" value="/model.4/m.0/cv1/act/Mul" />
			</rt_info>
			<input>
				<port id="0" precision="FP32">
					<dim>1</dim>
					<dim>32</dim>
					<dim>80</dim>
					<dim>80</dim>
				</port>
			</input>
			<output>
				<port id="1" precision="FP32" names="/model.4/m.0/cv1/act/Mul_output_0">
					<dim>1</dim>
					<dim>32</dim>
					<dim>80</dim>
					<dim>80</dim>
				</port>
			</output>
		</layer>
		<layer id="140" name="Constant_37047" type="Const" version="opset1">
			<data element_type="f32" shape="" offset="46520" size="4" />
			<rt_info>
				<attribute name="fused_names" version="0" value="Constant_37047" />
			</rt_info>
			<output>
				<port id="0" precision="FP32" />
			</output>
		</layer>
		<layer id="141" name="Constant_37048" type="Const" version="opset1">
			<data element_type="f32" shape="" offset="46524" size="4" />
			<rt_info>
				<attribute name="fused_names" version="0" value="Constant_37048" />
			</rt_info>
			<output>
				<port id="0" precision="FP32" />
			</output>
		</layer>
		<layer id="142" name="Constant_37049" type="Const" version="opset1">
			<data element_type="f32" shape="" offset="46520" size="4" />
			<rt_info>
				<attribute name="fused_names" version="0" value="Constant_37049" />
			</rt_info>
			<output>
				<port id="0" precision="FP32" />
			</output>
		</layer>
		<layer id="143" name="Constant_37050" type="Const" version="opset1">
			<data element_type="f32" shape="" offset="46524" size="4" />
			<rt_info>
				<attribute name="fused_names" version="0" value="Constant_37050" />
			</rt_info>
			<output>
				<port id="0" precision="FP32" />
			</output>
		</layer>
		<layer id="144" name="/model.4/m.0/cv1/act/Mul/fq_output_0" type="FakeQuantize" version="opset1">
			<data levels="256" auto_broadcast="numpy" />
			<rt_info>
				<attribute name="fused_names" version="0" value="/model.4/m.0/cv1/act/Mul/fq_output_0" />
			</rt_info>
			<input>
				<port id="0" precision="FP32">
					<dim>1</dim>
					<dim>32</dim>
					<dim>80</dim>
					<dim>80</dim>
				</port>
				<port id="1" precision="FP32" />
				<port id="2" precision="FP32" />
				<port id="3" precision="FP32" />
				<port id="4" precision="FP32" />
			</input>
			<output>
				<port id="5" precision="FP32">
					<dim>1</dim>
					<dim>32</dim>
					<dim>80</dim>
					<dim>80</dim>
				</port>
			</output>
		</layer>
		<layer id="145" name="model.4.m.0.cv2.conv.weight" type="Const" version="opset1">
			<data element_type="i8" shape="32, 32, 3, 3" offset="46528" size="9216" />
			<rt_info>
				<attribute name="fused_names" version="0" value="model.4.m.0.cv2.conv.weight" />
			</rt_info>
			<output>
				<port id="0" precision="I8">
					<dim>32</dim>
					<dim>32</dim>
					<dim>3</dim>
					<dim>3</dim>
				</port>
			</output>
		</layer>
		<layer id="146" name="Convert_275334" type="Convert" version="opset1">
			<data destination_type="f32" />
			<rt_info>
				<attribute name="fused_names" version="0" value="model.4.m.0.cv2.conv.weight" />
			</rt_info>
			<input>
				<port id="0" precision="I8">
					<dim>32</dim>
					<dim>32</dim>
					<dim>3</dim>
					<dim>3</dim>
				</port>
			</input>
			<output>
				<port id="1" precision="FP32">
					<dim>32</dim>
					<dim>32</dim>
					<dim>3</dim>
					<dim>3</dim>
				</port>
			</output>
		</layer>
		<layer id="147" name="Constant_275232" type="Const" version="opset1">
			<data element_type="f32" shape="32, 1, 1, 1" offset="55744" size="128" />
			<rt_info>
				<attribute name="fused_names" version="0" value="model.4.m.0.cv2.conv.weight" />
			</rt_info>
			<output>
				<port id="0" precision="FP32">
					<dim>32</dim>
					<dim>1</dim>
					<dim>1</dim>
					<dim>1</dim>
				</port>
			</output>
		</layer>
		<layer id="148" name="/model.4/m.0/cv2/conv/Conv/WithoutBiases/fq_weights_1" type="Multiply" version="opset1">
			<data auto_broadcast="numpy" />
			<rt_info>
				<attribute name="fused_names" version="0" value="model.4.m.0.cv2.conv.weight" />
			</rt_info>
			<input>
				<port id="0" precision="FP32">
					<dim>32</dim>
					<dim>32</dim>
					<dim>3</dim>
					<dim>3</dim>
				</port>
				<port id="1" precision="FP32">
					<dim>32</dim>
					<dim>1</dim>
					<dim>1</dim>
					<dim>1</dim>
				</port>
			</input>
			<output>
				<port id="2" precision="FP32">
					<dim>32</dim>
					<dim>32</dim>
					<dim>3</dim>
					<dim>3</dim>
				</port>
			</output>
		</layer>
		<layer id="149" name="/model.4/m.0/cv2/conv/Conv/WithoutBiases" type="Convolution" version="opset1">
			<data strides="1, 1" dilations="1, 1" pads_begin="1, 1" pads_end="1, 1" auto_pad="explicit" />
			<rt_info>
				<attribute name="fused_names" version="0" value="/model.4/m.0/cv2/conv/Conv/WithoutBiases" />
			</rt_info>
			<input>
				<port id="0" precision="FP32">
					<dim>1</dim>
					<dim>32</dim>
					<dim>80</dim>
					<dim>80</dim>
				</port>
				<port id="1" precision="FP32">
					<dim>32</dim>
					<dim>32</dim>
					<dim>3</dim>
					<dim>3</dim>
				</port>
			</input>
			<output>
				<port id="2" precision="FP32">
					<dim>1</dim>
					<dim>32</dim>
					<dim>80</dim>
					<dim>80</dim>
				</port>
			</output>
		</layer>
		<layer id="150" name="Reshape_301" type="Const" version="opset1">
			<data element_type="f32" shape="1, 32, 1, 1" offset="55872" size="128" />
			<rt_info>
				<attribute name="fused_names" version="0" value="Reshape_301" />
			</rt_info>
			<output>
				<port id="0" precision="FP32">
					<dim>1</dim>
					<dim>32</dim>
					<dim>1</dim>
					<dim>1</dim>
				</port>
			</output>
		</layer>
		<layer id="151" name="/model.4/m.0/cv2/conv/Conv" type="Add" version="opset1">
			<data auto_broadcast="numpy" />
			<rt_info>
				<attribute name="fused_names" version="0" value="/model.4/m.0/cv2/conv/Conv" />
			</rt_info>
			<input>
				<port id="0" precision="FP32">
					<dim>1</dim>
					<dim>32</dim>
					<dim>80</dim>
					<dim>80</dim>
				</port>
				<port id="1" precision="FP32">
					<dim>1</dim>
					<dim>32</dim>
					<dim>1</dim>
					<dim>1</dim>
				</port>
			</input>
			<output>
				<port id="2" precision="FP32" names="/model.4/m.0/cv2/conv/Conv_output_0">
					<dim>1</dim>
					<dim>32</dim>
					<dim>80</dim>
					<dim>80</dim>
				</port>
			</output>
		</layer>
		<layer id="152" name="/model.4/m.0/cv2/act/Mul" type="Swish" version="opset4">
			<rt_info>
				<attribute name="fused_names" version="0" value="/model.4/m.0/cv2/act/Mul" />
			</rt_info>
			<input>
				<port id="0" precision="FP32">
					<dim>1</dim>
					<dim>32</dim>
					<dim>80</dim>
					<dim>80</dim>
				</port>
			</input>
			<output>
				<port id="1" precision="FP32" names="/model.4/m.0/cv2/act/Mul_output_0">
					<dim>1</dim>
					<dim>32</dim>
					<dim>80</dim>
					<dim>80</dim>
				</port>
			</output>
		</layer>
		<layer id="153" name="Constant_37057" type="Const" version="opset1">
			<data element_type="f32" shape="" offset="56000" size="4" />
			<rt_info>
				<attribute name="fused_names" version="0" value="Constant_37057" />
			</rt_info>
			<output>
				<port id="0" precision="FP32" />
			</output>
		</layer>
		<layer id="154" name="Constant_37058" type="Const" version="opset1">
			<data element_type="f32" shape="" offset="56004" size="4" />
			<rt_info>
				<attribute name="fused_names" version="0" value="Constant_37058" />
			</rt_info>
			<output>
				<port id="0" precision="FP32" />
			</output>
		</layer>
		<layer id="155" name="Constant_37059" type="Const" version="opset1">
			<data element_type="f32" shape="" offset="56000" size="4" />
			<rt_info>
				<attribute name="fused_names" version="0" value="Constant_37059" />
			</rt_info>
			<output>
				<port id="0" precision="FP32" />
			</output>
		</layer>
		<layer id="156" name="Constant_37060" type="Const" version="opset1">
			<data element_type="f32" shape="" offset="56004" size="4" />
			<rt_info>
				<attribute name="fused_names" version="0" value="Constant_37060" />
			</rt_info>
			<output>
				<port id="0" precision="FP32" />
			</output>
		</layer>
		<layer id="157" name="/model.4/m.0/cv2/act/Mul/fq_output_0" type="FakeQuantize" version="opset1">
			<data levels="256" auto_broadcast="numpy" />
			<rt_info>
				<attribute name="fused_names" version="0" value="/model.4/m.0/cv2/act/Mul/fq_output_0" />
			</rt_info>
			<input>
				<port id="0" precision="FP32">
					<dim>1</dim>
					<dim>32</dim>
					<dim>80</dim>
					<dim>80</dim>
				</port>
				<port id="1" precision="FP32" />
				<port id="2" precision="FP32" />
				<port id="3" precision="FP32" />
				<port id="4" precision="FP32" />
			</input>
			<output>
				<port id="5" precision="FP32">
					<dim>1</dim>
					<dim>32</dim>
					<dim>80</dim>
					<dim>80</dim>
				</port>
			</output>
		</layer>
		<layer id="158" name="/model.4/m.0/Add" type="Add" version="opset1">
			<data auto_broadcast="numpy" />
			<rt_info>
				<attribute name="fused_names" version="0" value="/model.4/m.0/Add" />
			</rt_info>
			<input>
				<port id="0" precision="FP32">
					<dim>1</dim>
					<dim>32</dim>
					<dim>80</dim>
					<dim>80</dim>
				</port>
				<port id="1" precision="FP32">
					<dim>1</dim>
					<dim>32</dim>
					<dim>80</dim>
					<dim>80</dim>
				</port>
			</input>
			<output>
				<port id="2" precision="FP32" names="/model.4/m.0/Add_output_0">
					<dim>1</dim>
					<dim>32</dim>
					<dim>80</dim>
					<dim>80</dim>
				</port>
			</output>
		</layer>
		<layer id="159" name="Constant_36852" type="Const" version="opset1">
			<data element_type="f32" shape="" offset="37024" size="4" />
			<rt_info>
				<attribute name="fused_names" version="0" value="Constant_36852" />
			</rt_info>
			<output>
				<port id="0" precision="FP32" />
			</output>
		</layer>
		<layer id="160" name="Constant_36853" type="Const" version="opset1">
			<data element_type="f32" shape="" offset="37028" size="4" />
			<rt_info>
				<attribute name="fused_names" version="0" value="Constant_36853" />
			</rt_info>
			<output>
				<port id="0" precision="FP32" />
			</output>
		</layer>
		<layer id="161" name="Constant_36854" type="Const" version="opset1">
			<data element_type="f32" shape="" offset="37024" size="4" />
			<rt_info>
				<attribute name="fused_names" version="0" value="Constant_36854" />
			</rt_info>
			<output>
				<port id="0" precision="FP32" />
			</output>
		</layer>
		<layer id="162" name="Constant_36855" type="Const" version="opset1">
			<data element_type="f32" shape="" offset="37028" size="4" />
			<rt_info>
				<attribute name="fused_names" version="0" value="Constant_36855" />
			</rt_info>
			<output>
				<port id="0" precision="FP32" />
			</output>
		</layer>
		<layer id="163" name="/model.4/m.0/Add/fq_output_0" type="FakeQuantize" version="opset1">
			<data levels="256" auto_broadcast="numpy" />
			<rt_info>
				<attribute name="fused_names" version="0" value="/model.4/m.0/Add/fq_output_0" />
			</rt_info>
			<input>
				<port id="0" precision="FP32">
					<dim>1</dim>
					<dim>32</dim>
					<dim>80</dim>
					<dim>80</dim>
				</port>
				<port id="1" precision="FP32" />
				<port id="2" precision="FP32" />
				<port id="3" precision="FP32" />
				<port id="4" precision="FP32" />
			</input>
			<output>
				<port id="5" precision="FP32">
					<dim>1</dim>
					<dim>32</dim>
					<dim>80</dim>
					<dim>80</dim>
				</port>
			</output>
		</layer>
		<layer id="164" name="model.4.m.1.cv1.conv.weight" type="Const" version="opset1">
			<data element_type="i8" shape="32, 32, 3, 3" offset="56008" size="9216" />
			<rt_info>
				<attribute name="fused_names" version="0" value="model.4.m.1.cv1.conv.weight" />
			</rt_info>
			<output>
				<port id="0" precision="I8">
					<dim>32</dim>
					<dim>32</dim>
					<dim>3</dim>
					<dim>3</dim>
				</port>
			</output>
		</layer>
		<layer id="165" name="Convert_275488" type="Convert" version="opset1">
			<data destination_type="f32" />
			<rt_info>
				<attribute name="fused_names" version="0" value="model.4.m.1.cv1.conv.weight" />
			</rt_info>
			<input>
				<port id="0" precision="I8">
					<dim>32</dim>
					<dim>32</dim>
					<dim>3</dim>
					<dim>3</dim>
				</port>
			</input>
			<output>
				<port id="1" precision="FP32">
					<dim>32</dim>
					<dim>32</dim>
					<dim>3</dim>
					<dim>3</dim>
				</port>
			</output>
		</layer>
		<layer id="166" name="Constant_275386" type="Const" version="opset1">
			<data element_type="f32" shape="32, 1, 1, 1" offset="65224" size="128" />
			<rt_info>
				<attribute name="fused_names" version="0" value="model.4.m.1.cv1.conv.weight" />
			</rt_info>
			<output>
				<port id="0" precision="FP32">
					<dim>32</dim>
					<dim>1</dim>
					<dim>1</dim>
					<dim>1</dim>
				</port>
			</output>
		</layer>
		<layer id="167" name="/model.4/m.1/cv1/conv/Conv/WithoutBiases/fq_weights_1" type="Multiply" version="opset1">
			<data auto_broadcast="numpy" />
			<rt_info>
				<attribute name="fused_names" version="0" value="model.4.m.1.cv1.conv.weight" />
			</rt_info>
			<input>
				<port id="0" precision="FP32">
					<dim>32</dim>
					<dim>32</dim>
					<dim>3</dim>
					<dim>3</dim>
				</port>
				<port id="1" precision="FP32">
					<dim>32</dim>
					<dim>1</dim>
					<dim>1</dim>
					<dim>1</dim>
				</port>
			</input>
			<output>
				<port id="2" precision="FP32">
					<dim>32</dim>
					<dim>32</dim>
					<dim>3</dim>
					<dim>3</dim>
				</port>
			</output>
		</layer>
		<layer id="168" name="/model.4/m.1/cv1/conv/Conv/WithoutBiases" type="Convolution" version="opset1">
			<data strides="1, 1" dilations="1, 1" pads_begin="1, 1" pads_end="1, 1" auto_pad="explicit" />
			<rt_info>
				<attribute name="fused_names" version="0" value="/model.4/m.1/cv1/conv/Conv/WithoutBiases" />
			</rt_info>
			<input>
				<port id="0" precision="FP32">
					<dim>1</dim>
					<dim>32</dim>
					<dim>80</dim>
					<dim>80</dim>
				</port>
				<port id="1" precision="FP32">
					<dim>32</dim>
					<dim>32</dim>
					<dim>3</dim>
					<dim>3</dim>
				</port>
			</input>
			<output>
				<port id="2" precision="FP32">
					<dim>1</dim>
					<dim>32</dim>
					<dim>80</dim>
					<dim>80</dim>
				</port>
			</output>
		</layer>
		<layer id="169" name="Reshape_319" type="Const" version="opset1">
			<data element_type="f32" shape="1, 32, 1, 1" offset="65352" size="128" />
			<rt_info>
				<attribute name="fused_names" version="0" value="Reshape_319" />
			</rt_info>
			<output>
				<port id="0" precision="FP32">
					<dim>1</dim>
					<dim>32</dim>
					<dim>1</dim>
					<dim>1</dim>
				</port>
			</output>
		</layer>
		<layer id="170" name="/model.4/m.1/cv1/conv/Conv" type="Add" version="opset1">
			<data auto_broadcast="numpy" />
			<rt_info>
				<attribute name="fused_names" version="0" value="/model.4/m.1/cv1/conv/Conv" />
			</rt_info>
			<input>
				<port id="0" precision="FP32">
					<dim>1</dim>
					<dim>32</dim>
					<dim>80</dim>
					<dim>80</dim>
				</port>
				<port id="1" precision="FP32">
					<dim>1</dim>
					<dim>32</dim>
					<dim>1</dim>
					<dim>1</dim>
				</port>
			</input>
			<output>
				<port id="2" precision="FP32" names="/model.4/m.1/cv1/conv/Conv_output_0">
					<dim>1</dim>
					<dim>32</dim>
					<dim>80</dim>
					<dim>80</dim>
				</port>
			</output>
		</layer>
		<layer id="171" name="/model.4/m.1/cv1/act/Mul" type="Swish" version="opset4">
			<rt_info>
				<attribute name="fused_names" version="0" value="/model.4/m.1/cv1/act/Mul" />
			</rt_info>
			<input>
				<port id="0" precision="FP32">
					<dim>1</dim>
					<dim>32</dim>
					<dim>80</dim>
					<dim>80</dim>
				</port>
			</input>
			<output>
				<port id="1" precision="FP32" names="/model.4/m.1/cv1/act/Mul_output_0">
					<dim>1</dim>
					<dim>32</dim>
					<dim>80</dim>
					<dim>80</dim>
				</port>
			</output>
		</layer>
		<layer id="172" name="Constant_37067" type="Const" version="opset1">
			<data element_type="f32" shape="" offset="9224" size="4" />
			<rt_info>
				<attribute name="fused_names" version="0" value="Constant_37067" />
			</rt_info>
			<output>
				<port id="0" precision="FP32" />
			</output>
		</layer>
		<layer id="173" name="Constant_37068" type="Const" version="opset1">
			<data element_type="f32" shape="" offset="65480" size="4" />
			<rt_info>
				<attribute name="fused_names" version="0" value="Constant_37068" />
			</rt_info>
			<output>
				<port id="0" precision="FP32" />
			</output>
		</layer>
		<layer id="174" name="Constant_37069" type="Const" version="opset1">
			<data element_type="f32" shape="" offset="9224" size="4" />
			<rt_info>
				<attribute name="fused_names" version="0" value="Constant_37069" />
			</rt_info>
			<output>
				<port id="0" precision="FP32" />
			</output>
		</layer>
		<layer id="175" name="Constant_37070" type="Const" version="opset1">
			<data element_type="f32" shape="" offset="65480" size="4" />
			<rt_info>
				<attribute name="fused_names" version="0" value="Constant_37070" />
			</rt_info>
			<output>
				<port id="0" precision="FP32" />
			</output>
		</layer>
		<layer id="176" name="/model.4/m.1/cv1/act/Mul/fq_output_0" type="FakeQuantize" version="opset1">
			<data levels="256" auto_broadcast="numpy" />
			<rt_info>
				<attribute name="fused_names" version="0" value="/model.4/m.1/cv1/act/Mul/fq_output_0" />
			</rt_info>
			<input>
				<port id="0" precision="FP32">
					<dim>1</dim>
					<dim>32</dim>
					<dim>80</dim>
					<dim>80</dim>
				</port>
				<port id="1" precision="FP32" />
				<port id="2" precision="FP32" />
				<port id="3" precision="FP32" />
				<port id="4" precision="FP32" />
			</input>
			<output>
				<port id="5" precision="FP32">
					<dim>1</dim>
					<dim>32</dim>
					<dim>80</dim>
					<dim>80</dim>
				</port>
			</output>
		</layer>
		<layer id="177" name="model.4.m.1.cv2.conv.weight" type="Const" version="opset1">
			<data element_type="i8" shape="32, 32, 3, 3" offset="65484" size="9216" />
			<rt_info>
				<attribute name="fused_names" version="0" value="model.4.m.1.cv2.conv.weight" />
			</rt_info>
			<output>
				<port id="0" precision="I8">
					<dim>32</dim>
					<dim>32</dim>
					<dim>3</dim>
					<dim>3</dim>
				</port>
			</output>
		</layer>
		<layer id="178" name="Convert_275642" type="Convert" version="opset1">
			<data destination_type="f32" />
			<rt_info>
				<attribute name="fused_names" version="0" value="model.4.m.1.cv2.conv.weight" />
			</rt_info>
			<input>
				<port id="0" precision="I8">
					<dim>32</dim>
					<dim>32</dim>
					<dim>3</dim>
					<dim>3</dim>
				</port>
			</input>
			<output>
				<port id="1" precision="FP32">
					<dim>32</dim>
					<dim>32</dim>
					<dim>3</dim>
					<dim>3</dim>
				</port>
			</output>
		</layer>
		<layer id="179" name="Constant_275540" type="Const" version="opset1">
			<data element_type="f32" shape="32, 1, 1, 1" offset="74700" size="128" />
			<rt_info>
				<attribute name="fused_names" version="0" value="model.4.m.1.cv2.conv.weight" />
			</rt_info>
			<output>
				<port id="0" precision="FP32">
					<dim>32</dim>
					<dim>1</dim>
					<dim>1</dim>
					<dim>1</dim>
				</port>
			</output>
		</layer>
		<layer id="180" name="/model.4/m.1/cv2/conv/Conv/WithoutBiases/fq_weights_1" type="Multiply" version="opset1">
			<data auto_broadcast="numpy" />
			<rt_info>
				<attribute name="fused_names" version="0" value="model.4.m.1.cv2.conv.weight" />
			</rt_info>
			<input>
				<port id="0" precision="FP32">
					<dim>32</dim>
					<dim>32</dim>
					<dim>3</dim>
					<dim>3</dim>
				</port>
				<port id="1" precision="FP32">
					<dim>32</dim>
					<dim>1</dim>
					<dim>1</dim>
					<dim>1</dim>
				</port>
			</input>
			<output>
				<port id="2" precision="FP32">
					<dim>32</dim>
					<dim>32</dim>
					<dim>3</dim>
					<dim>3</dim>
				</port>
			</output>
		</layer>
		<layer id="181" name="/model.4/m.1/cv2/conv/Conv/WithoutBiases" type="Convolution" version="opset1">
			<data strides="1, 1" dilations="1, 1" pads_begin="1, 1" pads_end="1, 1" auto_pad="explicit" />
			<rt_info>
				<attribute name="fused_names" version="0" value="/model.4/m.1/cv2/conv/Conv/WithoutBiases" />
			</rt_info>
			<input>
				<port id="0" precision="FP32">
					<dim>1</dim>
					<dim>32</dim>
					<dim>80</dim>
					<dim>80</dim>
				</port>
				<port id="1" precision="FP32">
					<dim>32</dim>
					<dim>32</dim>
					<dim>3</dim>
					<dim>3</dim>
				</port>
			</input>
			<output>
				<port id="2" precision="FP32">
					<dim>1</dim>
					<dim>32</dim>
					<dim>80</dim>
					<dim>80</dim>
				</port>
			</output>
		</layer>
		<layer id="182" name="Reshape_336" type="Const" version="opset1">
			<data element_type="f32" shape="1, 32, 1, 1" offset="74828" size="128" />
			<rt_info>
				<attribute name="fused_names" version="0" value="Reshape_336" />
			</rt_info>
			<output>
				<port id="0" precision="FP32">
					<dim>1</dim>
					<dim>32</dim>
					<dim>1</dim>
					<dim>1</dim>
				</port>
			</output>
		</layer>
		<layer id="183" name="/model.4/m.1/cv2/conv/Conv" type="Add" version="opset1">
			<data auto_broadcast="numpy" />
			<rt_info>
				<attribute name="fused_names" version="0" value="/model.4/m.1/cv2/conv/Conv" />
			</rt_info>
			<input>
				<port id="0" precision="FP32">
					<dim>1</dim>
					<dim>32</dim>
					<dim>80</dim>
					<dim>80</dim>
				</port>
				<port id="1" precision="FP32">
					<dim>1</dim>
					<dim>32</dim>
					<dim>1</dim>
					<dim>1</dim>
				</port>
			</input>
			<output>
				<port id="2" precision="FP32" names="/model.4/m.1/cv2/conv/Conv_output_0">
					<dim>1</dim>
					<dim>32</dim>
					<dim>80</dim>
					<dim>80</dim>
				</port>
			</output>
		</layer>
		<layer id="184" name="/model.4/m.1/cv2/act/Mul" type="Swish" version="opset4">
			<rt_info>
				<attribute name="fused_names" version="0" value="/model.4/m.1/cv2/act/Mul" />
			</rt_info>
			<input>
				<port id="0" precision="FP32">
					<dim>1</dim>
					<dim>32</dim>
					<dim>80</dim>
					<dim>80</dim>
				</port>
			</input>
			<output>
				<port id="1" precision="FP32" names="/model.4/m.1/cv2/act/Mul_output_0">
					<dim>1</dim>
					<dim>32</dim>
					<dim>80</dim>
					<dim>80</dim>
				</port>
			</output>
		</layer>
		<layer id="185" name="Constant_37077" type="Const" version="opset1">
			<data element_type="f32" shape="" offset="74956" size="4" />
			<rt_info>
				<attribute name="fused_names" version="0" value="Constant_37077" />
			</rt_info>
			<output>
				<port id="0" precision="FP32" />
			</output>
		</layer>
		<layer id="186" name="Constant_37078" type="Const" version="opset1">
			<data element_type="f32" shape="" offset="74960" size="4" />
			<rt_info>
				<attribute name="fused_names" version="0" value="Constant_37078" />
			</rt_info>
			<output>
				<port id="0" precision="FP32" />
			</output>
		</layer>
		<layer id="187" name="Constant_37079" type="Const" version="opset1">
			<data element_type="f32" shape="" offset="74956" size="4" />
			<rt_info>
				<attribute name="fused_names" version="0" value="Constant_37079" />
			</rt_info>
			<output>
				<port id="0" precision="FP32" />
			</output>
		</layer>
		<layer id="188" name="Constant_37080" type="Const" version="opset1">
			<data element_type="f32" shape="" offset="74960" size="4" />
			<rt_info>
				<attribute name="fused_names" version="0" value="Constant_37080" />
			</rt_info>
			<output>
				<port id="0" precision="FP32" />
			</output>
		</layer>
		<layer id="189" name="/model.4/m.1/cv2/act/Mul/fq_output_0" type="FakeQuantize" version="opset1">
			<data levels="256" auto_broadcast="numpy" />
			<rt_info>
				<attribute name="fused_names" version="0" value="/model.4/m.1/cv2/act/Mul/fq_output_0" />
			</rt_info>
			<input>
				<port id="0" precision="FP32">
					<dim>1</dim>
					<dim>32</dim>
					<dim>80</dim>
					<dim>80</dim>
				</port>
				<port id="1" precision="FP32" />
				<port id="2" precision="FP32" />
				<port id="3" precision="FP32" />
				<port id="4" precision="FP32" />
			</input>
			<output>
				<port id="5" precision="FP32">
					<dim>1</dim>
					<dim>32</dim>
					<dim>80</dim>
					<dim>80</dim>
				</port>
			</output>
		</layer>
		<layer id="190" name="/model.4/m.1/Add" type="Add" version="opset1">
			<data auto_broadcast="numpy" />
			<rt_info>
				<attribute name="fused_names" version="0" value="/model.4/m.1/Add" />
			</rt_info>
			<input>
				<port id="0" precision="FP32">
					<dim>1</dim>
					<dim>32</dim>
					<dim>80</dim>
					<dim>80</dim>
				</port>
				<port id="1" precision="FP32">
					<dim>1</dim>
					<dim>32</dim>
					<dim>80</dim>
					<dim>80</dim>
				</port>
			</input>
			<output>
				<port id="2" precision="FP32" names="/model.4/m.1/Add_output_0">
					<dim>1</dim>
					<dim>32</dim>
					<dim>80</dim>
					<dim>80</dim>
				</port>
			</output>
		</layer>
		<layer id="191" name="Constant_36842" type="Const" version="opset1">
			<data element_type="f32" shape="" offset="37024" size="4" />
			<rt_info>
				<attribute name="fused_names" version="0" value="Constant_36842" />
			</rt_info>
			<output>
				<port id="0" precision="FP32" />
			</output>
		</layer>
		<layer id="192" name="Constant_36843" type="Const" version="opset1">
			<data element_type="f32" shape="" offset="37028" size="4" />
			<rt_info>
				<attribute name="fused_names" version="0" value="Constant_36843" />
			</rt_info>
			<output>
				<port id="0" precision="FP32" />
			</output>
		</layer>
		<layer id="193" name="Constant_36844" type="Const" version="opset1">
			<data element_type="f32" shape="" offset="37024" size="4" />
			<rt_info>
				<attribute name="fused_names" version="0" value="Constant_36844" />
			</rt_info>
			<output>
				<port id="0" precision="FP32" />
			</output>
		</layer>
		<layer id="194" name="Constant_36845" type="Const" version="opset1">
			<data element_type="f32" shape="" offset="37028" size="4" />
			<rt_info>
				<attribute name="fused_names" version="0" value="Constant_36845" />
			</rt_info>
			<output>
				<port id="0" precision="FP32" />
			</output>
		</layer>
		<layer id="195" name="/model.4/m.1/Add/fq_output_0" type="FakeQuantize" version="opset1">
			<data levels="256" auto_broadcast="numpy" />
			<rt_info>
				<attribute name="fused_names" version="0" value="/model.4/m.1/Add/fq_output_0" />
			</rt_info>
			<input>
				<port id="0" precision="FP32">
					<dim>1</dim>
					<dim>32</dim>
					<dim>80</dim>
					<dim>80</dim>
				</port>
				<port id="1" precision="FP32" />
				<port id="2" precision="FP32" />
				<port id="3" precision="FP32" />
				<port id="4" precision="FP32" />
			</input>
			<output>
				<port id="5" precision="FP32">
					<dim>1</dim>
					<dim>32</dim>
					<dim>80</dim>
					<dim>80</dim>
				</port>
			</output>
		</layer>
		<layer id="196" name="/model.4/Concat" type="Concat" version="opset1">
			<data axis="1" />
			<rt_info>
				<attribute name="fused_names" version="0" value="/model.4/Concat" />
			</rt_info>
			<input>
				<port id="0" precision="FP32">
					<dim>1</dim>
					<dim>32</dim>
					<dim>80</dim>
					<dim>80</dim>
				</port>
				<port id="1" precision="FP32">
					<dim>1</dim>
					<dim>32</dim>
					<dim>80</dim>
					<dim>80</dim>
				</port>
				<port id="2" precision="FP32">
					<dim>1</dim>
					<dim>32</dim>
					<dim>80</dim>
					<dim>80</dim>
				</port>
				<port id="3" precision="FP32">
					<dim>1</dim>
					<dim>32</dim>
					<dim>80</dim>
					<dim>80</dim>
				</port>
			</input>
			<output>
				<port id="4" precision="FP32" names="/model.4/Concat_output_0">
					<dim>1</dim>
					<dim>128</dim>
					<dim>80</dim>
					<dim>80</dim>
				</port>
			</output>
		</layer>
		<layer id="197" name="model.4.cv2.conv.weight" type="Const" version="opset1">
			<data element_type="i8" shape="64, 128, 1, 1" offset="74964" size="8192" />
			<rt_info>
				<attribute name="fused_names" version="0" value="model.4.cv2.conv.weight" />
			</rt_info>
			<output>
				<port id="0" precision="I8">
					<dim>64</dim>
					<dim>128</dim>
					<dim>1</dim>
					<dim>1</dim>
				</port>
			</output>
		</layer>
		<layer id="198" name="Convert_275796" type="Convert" version="opset1">
			<data destination_type="f32" />
			<rt_info>
				<attribute name="fused_names" version="0" value="model.4.cv2.conv.weight" />
			</rt_info>
			<input>
				<port id="0" precision="I8">
					<dim>64</dim>
					<dim>128</dim>
					<dim>1</dim>
					<dim>1</dim>
				</port>
			</input>
			<output>
				<port id="1" precision="FP32">
					<dim>64</dim>
					<dim>128</dim>
					<dim>1</dim>
					<dim>1</dim>
				</port>
			</output>
		</layer>
		<layer id="199" name="Constant_275694" type="Const" version="opset1">
			<data element_type="f32" shape="64, 1, 1, 1" offset="83156" size="256" />
			<rt_info>
				<attribute name="fused_names" version="0" value="model.4.cv2.conv.weight" />
			</rt_info>
			<output>
				<port id="0" precision="FP32">
					<dim>64</dim>
					<dim>1</dim>
					<dim>1</dim>
					<dim>1</dim>
				</port>
			</output>
		</layer>
		<layer id="200" name="/model.4/cv2/conv/Conv/WithoutBiases/fq_weights_1" type="Multiply" version="opset1">
			<data auto_broadcast="numpy" />
			<rt_info>
				<attribute name="fused_names" version="0" value="model.4.cv2.conv.weight" />
			</rt_info>
			<input>
				<port id="0" precision="FP32">
					<dim>64</dim>
					<dim>128</dim>
					<dim>1</dim>
					<dim>1</dim>
				</port>
				<port id="1" precision="FP32">
					<dim>64</dim>
					<dim>1</dim>
					<dim>1</dim>
					<dim>1</dim>
				</port>
			</input>
			<output>
				<port id="2" precision="FP32">
					<dim>64</dim>
					<dim>128</dim>
					<dim>1</dim>
					<dim>1</dim>
				</port>
			</output>
		</layer>
		<layer id="201" name="/model.4/cv2/conv/Conv/WithoutBiases" type="Convolution" version="opset1">
			<data strides="1, 1" dilations="1, 1" pads_begin="0, 0" pads_end="0, 0" auto_pad="explicit" />
			<rt_info>
				<attribute name="fused_names" version="0" value="/model.4/cv2/conv/Conv/WithoutBiases" />
			</rt_info>
			<input>
				<port id="0" precision="FP32">
					<dim>1</dim>
					<dim>128</dim>
					<dim>80</dim>
					<dim>80</dim>
				</port>
				<port id="1" precision="FP32">
					<dim>64</dim>
					<dim>128</dim>
					<dim>1</dim>
					<dim>1</dim>
				</port>
			</input>
			<output>
				<port id="2" precision="FP32">
					<dim>1</dim>
					<dim>64</dim>
					<dim>80</dim>
					<dim>80</dim>
				</port>
			</output>
		</layer>
		<layer id="202" name="Reshape_355" type="Const" version="opset1">
			<data element_type="f32" shape="1, 64, 1, 1" offset="83412" size="256" />
			<rt_info>
				<attribute name="fused_names" version="0" value="Reshape_355" />
			</rt_info>
			<output>
				<port id="0" precision="FP32">
					<dim>1</dim>
					<dim>64</dim>
					<dim>1</dim>
					<dim>1</dim>
				</port>
			</output>
		</layer>
		<layer id="203" name="/model.4/cv2/conv/Conv" type="Add" version="opset1">
			<data auto_broadcast="numpy" />
			<rt_info>
				<attribute name="fused_names" version="0" value="/model.4/cv2/conv/Conv" />
			</rt_info>
			<input>
				<port id="0" precision="FP32">
					<dim>1</dim>
					<dim>64</dim>
					<dim>80</dim>
					<dim>80</dim>
				</port>
				<port id="1" precision="FP32">
					<dim>1</dim>
					<dim>64</dim>
					<dim>1</dim>
					<dim>1</dim>
				</port>
			</input>
			<output>
				<port id="2" precision="FP32" names="/model.4/cv2/conv/Conv_output_0">
					<dim>1</dim>
					<dim>64</dim>
					<dim>80</dim>
					<dim>80</dim>
				</port>
			</output>
		</layer>
		<layer id="204" name="/model.4/cv2/act/Mul" type="Swish" version="opset4">
			<rt_info>
				<attribute name="fused_names" version="0" value="/model.4/cv2/act/Mul" />
			</rt_info>
			<input>
				<port id="0" precision="FP32">
					<dim>1</dim>
					<dim>64</dim>
					<dim>80</dim>
					<dim>80</dim>
				</port>
			</input>
			<output>
				<port id="1" precision="FP32" names="/model.4/cv2/act/Mul_output_0">
					<dim>1</dim>
					<dim>64</dim>
					<dim>80</dim>
					<dim>80</dim>
				</port>
			</output>
		</layer>
		<layer id="205" name="Constant_36857" type="Const" version="opset1">
			<data element_type="f32" shape="" offset="83668" size="4" />
			<rt_info>
				<attribute name="fused_names" version="0" value="Constant_36857" />
			</rt_info>
			<output>
				<port id="0" precision="FP32" />
			</output>
		</layer>
		<layer id="206" name="Constant_36858" type="Const" version="opset1">
			<data element_type="f32" shape="" offset="83672" size="4" />
			<rt_info>
				<attribute name="fused_names" version="0" value="Constant_36858" />
			</rt_info>
			<output>
				<port id="0" precision="FP32" />
			</output>
		</layer>
		<layer id="207" name="Constant_36859" type="Const" version="opset1">
			<data element_type="f32" shape="" offset="83668" size="4" />
			<rt_info>
				<attribute name="fused_names" version="0" value="Constant_36859" />
			</rt_info>
			<output>
				<port id="0" precision="FP32" />
			</output>
		</layer>
		<layer id="208" name="Constant_36860" type="Const" version="opset1">
			<data element_type="f32" shape="" offset="83672" size="4" />
			<rt_info>
				<attribute name="fused_names" version="0" value="Constant_36860" />
			</rt_info>
			<output>
				<port id="0" precision="FP32" />
			</output>
		</layer>
		<layer id="209" name="/model.4/cv2/act/Mul/fq_output_0" type="FakeQuantize" version="opset1">
			<data levels="256" auto_broadcast="numpy" />
			<rt_info>
				<attribute name="fused_names" version="0" value="/model.4/cv2/act/Mul/fq_output_0" />
			</rt_info>
			<input>
				<port id="0" precision="FP32">
					<dim>1</dim>
					<dim>64</dim>
					<dim>80</dim>
					<dim>80</dim>
				</port>
				<port id="1" precision="FP32" />
				<port id="2" precision="FP32" />
				<port id="3" precision="FP32" />
				<port id="4" precision="FP32" />
			</input>
			<output>
				<port id="5" precision="FP32">
					<dim>1</dim>
					<dim>64</dim>
					<dim>80</dim>
					<dim>80</dim>
				</port>
			</output>
		</layer>
		<layer id="210" name="model.5.conv.weight" type="Const" version="opset1">
			<data element_type="i8" shape="128, 64, 3, 3" offset="83676" size="73728" />
			<rt_info>
				<attribute name="fused_names" version="0" value="model.5.conv.weight" />
			</rt_info>
			<output>
				<port id="0" precision="I8">
					<dim>128</dim>
					<dim>64</dim>
					<dim>3</dim>
					<dim>3</dim>
				</port>
			</output>
		</layer>
		<layer id="211" name="Convert_275950" type="Convert" version="opset1">
			<data destination_type="f32" />
			<rt_info>
				<attribute name="fused_names" version="0" value="model.5.conv.weight" />
			</rt_info>
			<input>
				<port id="0" precision="I8">
					<dim>128</dim>
					<dim>64</dim>
					<dim>3</dim>
					<dim>3</dim>
				</port>
			</input>
			<output>
				<port id="1" precision="FP32">
					<dim>128</dim>
					<dim>64</dim>
					<dim>3</dim>
					<dim>3</dim>
				</port>
			</output>
		</layer>
		<layer id="212" name="Constant_275848" type="Const" version="opset1">
			<data element_type="f32" shape="128, 1, 1, 1" offset="157404" size="512" />
			<rt_info>
				<attribute name="fused_names" version="0" value="model.5.conv.weight" />
			</rt_info>
			<output>
				<port id="0" precision="FP32">
					<dim>128</dim>
					<dim>1</dim>
					<dim>1</dim>
					<dim>1</dim>
				</port>
			</output>
		</layer>
		<layer id="213" name="/model.5/conv/Conv/WithoutBiases/fq_weights_1" type="Multiply" version="opset1">
			<data auto_broadcast="numpy" />
			<rt_info>
				<attribute name="fused_names" version="0" value="model.5.conv.weight" />
			</rt_info>
			<input>
				<port id="0" precision="FP32">
					<dim>128</dim>
					<dim>64</dim>
					<dim>3</dim>
					<dim>3</dim>
				</port>
				<port id="1" precision="FP32">
					<dim>128</dim>
					<dim>1</dim>
					<dim>1</dim>
					<dim>1</dim>
				</port>
			</input>
			<output>
				<port id="2" precision="FP32">
					<dim>128</dim>
					<dim>64</dim>
					<dim>3</dim>
					<dim>3</dim>
				</port>
			</output>
		</layer>
		<layer id="214" name="/model.5/conv/Conv/WithoutBiases" type="Convolution" version="opset1">
			<data strides="2, 2" dilations="1, 1" pads_begin="1, 1" pads_end="1, 1" auto_pad="explicit" />
			<rt_info>
				<attribute name="fused_names" version="0" value="/model.5/conv/Conv/WithoutBiases" />
			</rt_info>
			<input>
				<port id="0" precision="FP32">
					<dim>1</dim>
					<dim>64</dim>
					<dim>80</dim>
					<dim>80</dim>
				</port>
				<port id="1" precision="FP32">
					<dim>128</dim>
					<dim>64</dim>
					<dim>3</dim>
					<dim>3</dim>
				</port>
			</input>
			<output>
				<port id="2" precision="FP32">
					<dim>1</dim>
					<dim>128</dim>
					<dim>40</dim>
					<dim>40</dim>
				</port>
			</output>
		</layer>
		<layer id="215" name="Reshape_372" type="Const" version="opset1">
			<data element_type="f32" shape="1, 128, 1, 1" offset="157916" size="512" />
			<rt_info>
				<attribute name="fused_names" version="0" value="Reshape_372" />
			</rt_info>
			<output>
				<port id="0" precision="FP32">
					<dim>1</dim>
					<dim>128</dim>
					<dim>1</dim>
					<dim>1</dim>
				</port>
			</output>
		</layer>
		<layer id="216" name="/model.5/conv/Conv" type="Add" version="opset1">
			<data auto_broadcast="numpy" />
			<rt_info>
				<attribute name="fused_names" version="0" value="/model.5/conv/Conv" />
			</rt_info>
			<input>
				<port id="0" precision="FP32">
					<dim>1</dim>
					<dim>128</dim>
					<dim>40</dim>
					<dim>40</dim>
				</port>
				<port id="1" precision="FP32">
					<dim>1</dim>
					<dim>128</dim>
					<dim>1</dim>
					<dim>1</dim>
				</port>
			</input>
			<output>
				<port id="2" precision="FP32" names="/model.5/conv/Conv_output_0">
					<dim>1</dim>
					<dim>128</dim>
					<dim>40</dim>
					<dim>40</dim>
				</port>
			</output>
		</layer>
		<layer id="217" name="/model.5/act/Mul" type="Swish" version="opset4">
			<rt_info>
				<attribute name="fused_names" version="0" value="/model.5/act/Mul" />
			</rt_info>
			<input>
				<port id="0" precision="FP32">
					<dim>1</dim>
					<dim>128</dim>
					<dim>40</dim>
					<dim>40</dim>
				</port>
			</input>
			<output>
				<port id="1" precision="FP32" names="/model.5/act/Mul_output_0">
					<dim>1</dim>
					<dim>128</dim>
					<dim>40</dim>
					<dim>40</dim>
				</port>
			</output>
		</layer>
		<layer id="218" name="Constant_37092" type="Const" version="opset1">
			<data element_type="f32" shape="" offset="9224" size="4" />
			<rt_info>
				<attribute name="fused_names" version="0" value="Constant_37092" />
			</rt_info>
			<output>
				<port id="0" precision="FP32" />
			</output>
		</layer>
		<layer id="219" name="Constant_37093" type="Const" version="opset1">
			<data element_type="f32" shape="" offset="158428" size="4" />
			<rt_info>
				<attribute name="fused_names" version="0" value="Constant_37093" />
			</rt_info>
			<output>
				<port id="0" precision="FP32" />
			</output>
		</layer>
		<layer id="220" name="Constant_37094" type="Const" version="opset1">
			<data element_type="f32" shape="" offset="9224" size="4" />
			<rt_info>
				<attribute name="fused_names" version="0" value="Constant_37094" />
			</rt_info>
			<output>
				<port id="0" precision="FP32" />
			</output>
		</layer>
		<layer id="221" name="Constant_37095" type="Const" version="opset1">
			<data element_type="f32" shape="" offset="158428" size="4" />
			<rt_info>
				<attribute name="fused_names" version="0" value="Constant_37095" />
			</rt_info>
			<output>
				<port id="0" precision="FP32" />
			</output>
		</layer>
		<layer id="222" name="/model.5/act/Mul/fq_output_0" type="FakeQuantize" version="opset1">
			<data levels="256" auto_broadcast="numpy" />
			<rt_info>
				<attribute name="fused_names" version="0" value="/model.5/act/Mul/fq_output_0" />
			</rt_info>
			<input>
				<port id="0" precision="FP32">
					<dim>1</dim>
					<dim>128</dim>
					<dim>40</dim>
					<dim>40</dim>
				</port>
				<port id="1" precision="FP32" />
				<port id="2" precision="FP32" />
				<port id="3" precision="FP32" />
				<port id="4" precision="FP32" />
			</input>
			<output>
				<port id="5" precision="FP32">
					<dim>1</dim>
					<dim>128</dim>
					<dim>40</dim>
					<dim>40</dim>
				</port>
			</output>
		</layer>
		<layer id="223" name="model.6.cv1.conv.weight" type="Const" version="opset1">
			<data element_type="i8" shape="128, 128, 1, 1" offset="158432" size="16384" />
			<rt_info>
				<attribute name="fused_names" version="0" value="model.6.cv1.conv.weight" />
			</rt_info>
			<output>
				<port id="0" precision="I8">
					<dim>128</dim>
					<dim>128</dim>
					<dim>1</dim>
					<dim>1</dim>
				</port>
			</output>
		</layer>
		<layer id="224" name="Convert_276104" type="Convert" version="opset1">
			<data destination_type="f32" />
			<rt_info>
				<attribute name="fused_names" version="0" value="model.6.cv1.conv.weight" />
			</rt_info>
			<input>
				<port id="0" precision="I8">
					<dim>128</dim>
					<dim>128</dim>
					<dim>1</dim>
					<dim>1</dim>
				</port>
			</input>
			<output>
				<port id="1" precision="FP32">
					<dim>128</dim>
					<dim>128</dim>
					<dim>1</dim>
					<dim>1</dim>
				</port>
			</output>
		</layer>
		<layer id="225" name="Constant_276002" type="Const" version="opset1">
			<data element_type="f32" shape="128, 1, 1, 1" offset="174816" size="512" />
			<rt_info>
				<attribute name="fused_names" version="0" value="model.6.cv1.conv.weight" />
			</rt_info>
			<output>
				<port id="0" precision="FP32">
					<dim>128</dim>
					<dim>1</dim>
					<dim>1</dim>
					<dim>1</dim>
				</port>
			</output>
		</layer>
		<layer id="226" name="/model.6/cv1/conv/Conv/WithoutBiases/fq_weights_1" type="Multiply" version="opset1">
			<data auto_broadcast="numpy" />
			<rt_info>
				<attribute name="fused_names" version="0" value="model.6.cv1.conv.weight" />
			</rt_info>
			<input>
				<port id="0" precision="FP32">
					<dim>128</dim>
					<dim>128</dim>
					<dim>1</dim>
					<dim>1</dim>
				</port>
				<port id="1" precision="FP32">
					<dim>128</dim>
					<dim>1</dim>
					<dim>1</dim>
					<dim>1</dim>
				</port>
			</input>
			<output>
				<port id="2" precision="FP32">
					<dim>128</dim>
					<dim>128</dim>
					<dim>1</dim>
					<dim>1</dim>
				</port>
			</output>
		</layer>
		<layer id="227" name="/model.6/cv1/conv/Conv/WithoutBiases" type="Convolution" version="opset1">
			<data strides="1, 1" dilations="1, 1" pads_begin="0, 0" pads_end="0, 0" auto_pad="explicit" />
			<rt_info>
				<attribute name="fused_names" version="0" value="/model.6/cv1/conv/Conv/WithoutBiases" />
			</rt_info>
			<input>
				<port id="0" precision="FP32">
					<dim>1</dim>
					<dim>128</dim>
					<dim>40</dim>
					<dim>40</dim>
				</port>
				<port id="1" precision="FP32">
					<dim>128</dim>
					<dim>128</dim>
					<dim>1</dim>
					<dim>1</dim>
				</port>
			</input>
			<output>
				<port id="2" precision="FP32">
					<dim>1</dim>
					<dim>128</dim>
					<dim>40</dim>
					<dim>40</dim>
				</port>
			</output>
		</layer>
		<layer id="228" name="Reshape_389" type="Const" version="opset1">
			<data element_type="f32" shape="1, 128, 1, 1" offset="175328" size="512" />
			<rt_info>
				<attribute name="fused_names" version="0" value="Reshape_389" />
			</rt_info>
			<output>
				<port id="0" precision="FP32">
					<dim>1</dim>
					<dim>128</dim>
					<dim>1</dim>
					<dim>1</dim>
				</port>
			</output>
		</layer>
		<layer id="229" name="/model.6/cv1/conv/Conv" type="Add" version="opset1">
			<data auto_broadcast="numpy" />
			<rt_info>
				<attribute name="fused_names" version="0" value="/model.6/cv1/conv/Conv" />
			</rt_info>
			<input>
				<port id="0" precision="FP32">
					<dim>1</dim>
					<dim>128</dim>
					<dim>40</dim>
					<dim>40</dim>
				</port>
				<port id="1" precision="FP32">
					<dim>1</dim>
					<dim>128</dim>
					<dim>1</dim>
					<dim>1</dim>
				</port>
			</input>
			<output>
				<port id="2" precision="FP32" names="/model.6/cv1/conv/Conv_output_0">
					<dim>1</dim>
					<dim>128</dim>
					<dim>40</dim>
					<dim>40</dim>
				</port>
			</output>
		</layer>
		<layer id="230" name="/model.6/cv1/act/Mul" type="Swish" version="opset4">
			<rt_info>
				<attribute name="fused_names" version="0" value="/model.6/cv1/act/Mul" />
			</rt_info>
			<input>
				<port id="0" precision="FP32">
					<dim>1</dim>
					<dim>128</dim>
					<dim>40</dim>
					<dim>40</dim>
				</port>
			</input>
			<output>
				<port id="1" precision="FP32" names="/model.6/cv1/act/Mul_output_0">
					<dim>1</dim>
					<dim>128</dim>
					<dim>40</dim>
					<dim>40</dim>
				</port>
			</output>
		</layer>
		<layer id="231" name="Constant_36867" type="Const" version="opset1">
			<data element_type="f32" shape="" offset="175840" size="4" />
			<rt_info>
				<attribute name="fused_names" version="0" value="Constant_36867" />
			</rt_info>
			<output>
				<port id="0" precision="FP32" />
			</output>
		</layer>
		<layer id="232" name="Constant_36868" type="Const" version="opset1">
			<data element_type="f32" shape="" offset="175844" size="4" />
			<rt_info>
				<attribute name="fused_names" version="0" value="Constant_36868" />
			</rt_info>
			<output>
				<port id="0" precision="FP32" />
			</output>
		</layer>
		<layer id="233" name="Constant_36869" type="Const" version="opset1">
			<data element_type="f32" shape="" offset="175840" size="4" />
			<rt_info>
				<attribute name="fused_names" version="0" value="Constant_36869" />
			</rt_info>
			<output>
				<port id="0" precision="FP32" />
			</output>
		</layer>
		<layer id="234" name="Constant_36870" type="Const" version="opset1">
			<data element_type="f32" shape="" offset="175844" size="4" />
			<rt_info>
				<attribute name="fused_names" version="0" value="Constant_36870" />
			</rt_info>
			<output>
				<port id="0" precision="FP32" />
			</output>
		</layer>
		<layer id="235" name="/model.6/cv1/act/Mul/fq_output_0" type="FakeQuantize" version="opset1">
			<data levels="256" auto_broadcast="numpy" />
			<rt_info>
				<attribute name="fused_names" version="0" value="/model.6/cv1/act/Mul/fq_output_0" />
			</rt_info>
			<input>
				<port id="0" precision="FP32">
					<dim>1</dim>
					<dim>128</dim>
					<dim>40</dim>
					<dim>40</dim>
				</port>
				<port id="1" precision="FP32" />
				<port id="2" precision="FP32" />
				<port id="3" precision="FP32" />
				<port id="4" precision="FP32" />
			</input>
			<output>
				<port id="5" precision="FP32">
					<dim>1</dim>
					<dim>128</dim>
					<dim>40</dim>
					<dim>40</dim>
				</port>
			</output>
		</layer>
		<layer id="236" name="Constant_396" type="Const" version="opset1">
			<data element_type="i64" shape="" offset="6768" size="8" />
			<rt_info>
				<attribute name="fused_names" version="0" value="Constant_396" />
			</rt_info>
			<output>
				<port id="0" precision="I64" />
			</output>
		</layer>
		<layer id="237" name="Constant_54" type="Const" version="opset1">
			<data element_type="i64" shape="2" offset="175848" size="16" />
			<rt_info>
				<attribute name="fused_names" version="0" value="Constant_54" />
			</rt_info>
			<output>
				<port id="0" precision="I64" names="onnx::Split_188">
					<dim>2</dim>
				</port>
			</output>
		</layer>
		<layer id="238" name="/model.6/Split" type="VariadicSplit" version="opset1">
			<rt_info>
				<attribute name="fused_names" version="0" value="/model.6/Split" />
			</rt_info>
			<input>
				<port id="0" precision="FP32">
					<dim>1</dim>
					<dim>128</dim>
					<dim>40</dim>
					<dim>40</dim>
				</port>
				<port id="1" precision="I64" />
				<port id="2" precision="I64">
					<dim>2</dim>
				</port>
			</input>
			<output>
				<port id="3" precision="FP32" names="/model.6/Split_output_0">
					<dim>1</dim>
					<dim>64</dim>
					<dim>40</dim>
					<dim>40</dim>
				</port>
				<port id="4" precision="FP32" names="/model.6/Split_output_1">
					<dim>1</dim>
					<dim>64</dim>
					<dim>40</dim>
					<dim>40</dim>
				</port>
			</output>
		</layer>
		<layer id="239" name="model.6.m.0.cv1.conv.weight" type="Const" version="opset1">
			<data element_type="i8" shape="64, 64, 3, 3" offset="175864" size="36864" />
			<rt_info>
				<attribute name="fused_names" version="0" value="model.6.m.0.cv1.conv.weight" />
			</rt_info>
			<output>
				<port id="0" precision="I8">
					<dim>64</dim>
					<dim>64</dim>
					<dim>3</dim>
					<dim>3</dim>
				</port>
			</output>
		</layer>
		<layer id="240" name="Convert_276258" type="Convert" version="opset1">
			<data destination_type="f32" />
			<rt_info>
				<attribute name="fused_names" version="0" value="model.6.m.0.cv1.conv.weight" />
			</rt_info>
			<input>
				<port id="0" precision="I8">
					<dim>64</dim>
					<dim>64</dim>
					<dim>3</dim>
					<dim>3</dim>
				</port>
			</input>
			<output>
				<port id="1" precision="FP32">
					<dim>64</dim>
					<dim>64</dim>
					<dim>3</dim>
					<dim>3</dim>
				</port>
			</output>
		</layer>
		<layer id="241" name="Constant_276156" type="Const" version="opset1">
			<data element_type="f32" shape="64, 1, 1, 1" offset="212728" size="256" />
			<rt_info>
				<attribute name="fused_names" version="0" value="model.6.m.0.cv1.conv.weight" />
			</rt_info>
			<output>
				<port id="0" precision="FP32">
					<dim>64</dim>
					<dim>1</dim>
					<dim>1</dim>
					<dim>1</dim>
				</port>
			</output>
		</layer>
		<layer id="242" name="/model.6/m.0/cv1/conv/Conv/WithoutBiases/fq_weights_1" type="Multiply" version="opset1">
			<data auto_broadcast="numpy" />
			<rt_info>
				<attribute name="fused_names" version="0" value="model.6.m.0.cv1.conv.weight" />
			</rt_info>
			<input>
				<port id="0" precision="FP32">
					<dim>64</dim>
					<dim>64</dim>
					<dim>3</dim>
					<dim>3</dim>
				</port>
				<port id="1" precision="FP32">
					<dim>64</dim>
					<dim>1</dim>
					<dim>1</dim>
					<dim>1</dim>
				</port>
			</input>
			<output>
				<port id="2" precision="FP32">
					<dim>64</dim>
					<dim>64</dim>
					<dim>3</dim>
					<dim>3</dim>
				</port>
			</output>
		</layer>
		<layer id="243" name="/model.6/m.0/cv1/conv/Conv/WithoutBiases" type="Convolution" version="opset1">
			<data strides="1, 1" dilations="1, 1" pads_begin="1, 1" pads_end="1, 1" auto_pad="explicit" />
			<rt_info>
				<attribute name="fused_names" version="0" value="/model.6/m.0/cv1/conv/Conv/WithoutBiases" />
			</rt_info>
			<input>
				<port id="0" precision="FP32">
					<dim>1</dim>
					<dim>64</dim>
					<dim>40</dim>
					<dim>40</dim>
				</port>
				<port id="1" precision="FP32">
					<dim>64</dim>
					<dim>64</dim>
					<dim>3</dim>
					<dim>3</dim>
				</port>
			</input>
			<output>
				<port id="2" precision="FP32">
					<dim>1</dim>
					<dim>64</dim>
					<dim>40</dim>
					<dim>40</dim>
				</port>
			</output>
		</layer>
		<layer id="244" name="Reshape_409" type="Const" version="opset1">
			<data element_type="f32" shape="1, 64, 1, 1" offset="212984" size="256" />
			<rt_info>
				<attribute name="fused_names" version="0" value="Reshape_409" />
			</rt_info>
			<output>
				<port id="0" precision="FP32">
					<dim>1</dim>
					<dim>64</dim>
					<dim>1</dim>
					<dim>1</dim>
				</port>
			</output>
		</layer>
		<layer id="245" name="/model.6/m.0/cv1/conv/Conv" type="Add" version="opset1">
			<data auto_broadcast="numpy" />
			<rt_info>
				<attribute name="fused_names" version="0" value="/model.6/m.0/cv1/conv/Conv" />
			</rt_info>
			<input>
				<port id="0" precision="FP32">
					<dim>1</dim>
					<dim>64</dim>
					<dim>40</dim>
					<dim>40</dim>
				</port>
				<port id="1" precision="FP32">
					<dim>1</dim>
					<dim>64</dim>
					<dim>1</dim>
					<dim>1</dim>
				</port>
			</input>
			<output>
				<port id="2" precision="FP32" names="/model.6/m.0/cv1/conv/Conv_output_0">
					<dim>1</dim>
					<dim>64</dim>
					<dim>40</dim>
					<dim>40</dim>
				</port>
			</output>
		</layer>
		<layer id="246" name="/model.6/m.0/cv1/act/Mul" type="Swish" version="opset4">
			<rt_info>
				<attribute name="fused_names" version="0" value="/model.6/m.0/cv1/act/Mul" />
			</rt_info>
			<input>
				<port id="0" precision="FP32">
					<dim>1</dim>
					<dim>64</dim>
					<dim>40</dim>
					<dim>40</dim>
				</port>
			</input>
			<output>
				<port id="1" precision="FP32" names="/model.6/m.0/cv1/act/Mul_output_0">
					<dim>1</dim>
					<dim>64</dim>
					<dim>40</dim>
					<dim>40</dim>
				</port>
			</output>
		</layer>
		<layer id="247" name="Constant_37107" type="Const" version="opset1">
			<data element_type="f32" shape="" offset="9224" size="4" />
			<rt_info>
				<attribute name="fused_names" version="0" value="Constant_37107" />
			</rt_info>
			<output>
				<port id="0" precision="FP32" />
			</output>
		</layer>
		<layer id="248" name="Constant_37108" type="Const" version="opset1">
			<data element_type="f32" shape="" offset="158428" size="4" />
			<rt_info>
				<attribute name="fused_names" version="0" value="Constant_37108" />
			</rt_info>
			<output>
				<port id="0" precision="FP32" />
			</output>
		</layer>
		<layer id="249" name="Constant_37109" type="Const" version="opset1">
			<data element_type="f32" shape="" offset="9224" size="4" />
			<rt_info>
				<attribute name="fused_names" version="0" value="Constant_37109" />
			</rt_info>
			<output>
				<port id="0" precision="FP32" />
			</output>
		</layer>
		<layer id="250" name="Constant_37110" type="Const" version="opset1">
			<data element_type="f32" shape="" offset="158428" size="4" />
			<rt_info>
				<attribute name="fused_names" version="0" value="Constant_37110" />
			</rt_info>
			<output>
				<port id="0" precision="FP32" />
			</output>
		</layer>
		<layer id="251" name="/model.6/m.0/cv1/act/Mul/fq_output_0" type="FakeQuantize" version="opset1">
			<data levels="256" auto_broadcast="numpy" />
			<rt_info>
				<attribute name="fused_names" version="0" value="/model.6/m.0/cv1/act/Mul/fq_output_0" />
			</rt_info>
			<input>
				<port id="0" precision="FP32">
					<dim>1</dim>
					<dim>64</dim>
					<dim>40</dim>
					<dim>40</dim>
				</port>
				<port id="1" precision="FP32" />
				<port id="2" precision="FP32" />
				<port id="3" precision="FP32" />
				<port id="4" precision="FP32" />
			</input>
			<output>
				<port id="5" precision="FP32">
					<dim>1</dim>
					<dim>64</dim>
					<dim>40</dim>
					<dim>40</dim>
				</port>
			</output>
		</layer>
		<layer id="252" name="model.6.m.0.cv2.conv.weight" type="Const" version="opset1">
			<data element_type="i8" shape="64, 64, 3, 3" offset="213240" size="36864" />
			<rt_info>
				<attribute name="fused_names" version="0" value="model.6.m.0.cv2.conv.weight" />
			</rt_info>
			<output>
				<port id="0" precision="I8">
					<dim>64</dim>
					<dim>64</dim>
					<dim>3</dim>
					<dim>3</dim>
				</port>
			</output>
		</layer>
		<layer id="253" name="Convert_276412" type="Convert" version="opset1">
			<data destination_type="f32" />
			<rt_info>
				<attribute name="fused_names" version="0" value="model.6.m.0.cv2.conv.weight" />
			</rt_info>
			<input>
				<port id="0" precision="I8">
					<dim>64</dim>
					<dim>64</dim>
					<dim>3</dim>
					<dim>3</dim>
				</port>
			</input>
			<output>
				<port id="1" precision="FP32">
					<dim>64</dim>
					<dim>64</dim>
					<dim>3</dim>
					<dim>3</dim>
				</port>
			</output>
		</layer>
		<layer id="254" name="Constant_276310" type="Const" version="opset1">
			<data element_type="f32" shape="64, 1, 1, 1" offset="250104" size="256" />
			<rt_info>
				<attribute name="fused_names" version="0" value="model.6.m.0.cv2.conv.weight" />
			</rt_info>
			<output>
				<port id="0" precision="FP32">
					<dim>64</dim>
					<dim>1</dim>
					<dim>1</dim>
					<dim>1</dim>
				</port>
			</output>
		</layer>
		<layer id="255" name="/model.6/m.0/cv2/conv/Conv/WithoutBiases/fq_weights_1" type="Multiply" version="opset1">
			<data auto_broadcast="numpy" />
			<rt_info>
				<attribute name="fused_names" version="0" value="model.6.m.0.cv2.conv.weight" />
			</rt_info>
			<input>
				<port id="0" precision="FP32">
					<dim>64</dim>
					<dim>64</dim>
					<dim>3</dim>
					<dim>3</dim>
				</port>
				<port id="1" precision="FP32">
					<dim>64</dim>
					<dim>1</dim>
					<dim>1</dim>
					<dim>1</dim>
				</port>
			</input>
			<output>
				<port id="2" precision="FP32">
					<dim>64</dim>
					<dim>64</dim>
					<dim>3</dim>
					<dim>3</dim>
				</port>
			</output>
		</layer>
		<layer id="256" name="/model.6/m.0/cv2/conv/Conv/WithoutBiases" type="Convolution" version="opset1">
			<data strides="1, 1" dilations="1, 1" pads_begin="1, 1" pads_end="1, 1" auto_pad="explicit" />
			<rt_info>
				<attribute name="fused_names" version="0" value="/model.6/m.0/cv2/conv/Conv/WithoutBiases" />
			</rt_info>
			<input>
				<port id="0" precision="FP32">
					<dim>1</dim>
					<dim>64</dim>
					<dim>40</dim>
					<dim>40</dim>
				</port>
				<port id="1" precision="FP32">
					<dim>64</dim>
					<dim>64</dim>
					<dim>3</dim>
					<dim>3</dim>
				</port>
			</input>
			<output>
				<port id="2" precision="FP32">
					<dim>1</dim>
					<dim>64</dim>
					<dim>40</dim>
					<dim>40</dim>
				</port>
			</output>
		</layer>
		<layer id="257" name="Reshape_426" type="Const" version="opset1">
			<data element_type="f32" shape="1, 64, 1, 1" offset="250360" size="256" />
			<rt_info>
				<attribute name="fused_names" version="0" value="Reshape_426" />
			</rt_info>
			<output>
				<port id="0" precision="FP32">
					<dim>1</dim>
					<dim>64</dim>
					<dim>1</dim>
					<dim>1</dim>
				</port>
			</output>
		</layer>
		<layer id="258" name="/model.6/m.0/cv2/conv/Conv" type="Add" version="opset1">
			<data auto_broadcast="numpy" />
			<rt_info>
				<attribute name="fused_names" version="0" value="/model.6/m.0/cv2/conv/Conv" />
			</rt_info>
			<input>
				<port id="0" precision="FP32">
					<dim>1</dim>
					<dim>64</dim>
					<dim>40</dim>
					<dim>40</dim>
				</port>
				<port id="1" precision="FP32">
					<dim>1</dim>
					<dim>64</dim>
					<dim>1</dim>
					<dim>1</dim>
				</port>
			</input>
			<output>
				<port id="2" precision="FP32" names="/model.6/m.0/cv2/conv/Conv_output_0">
					<dim>1</dim>
					<dim>64</dim>
					<dim>40</dim>
					<dim>40</dim>
				</port>
			</output>
		</layer>
		<layer id="259" name="/model.6/m.0/cv2/act/Mul" type="Swish" version="opset4">
			<rt_info>
				<attribute name="fused_names" version="0" value="/model.6/m.0/cv2/act/Mul" />
			</rt_info>
			<input>
				<port id="0" precision="FP32">
					<dim>1</dim>
					<dim>64</dim>
					<dim>40</dim>
					<dim>40</dim>
				</port>
			</input>
			<output>
				<port id="1" precision="FP32" names="/model.6/m.0/cv2/act/Mul_output_0">
					<dim>1</dim>
					<dim>64</dim>
					<dim>40</dim>
					<dim>40</dim>
				</port>
			</output>
		</layer>
		<layer id="260" name="Constant_37117" type="Const" version="opset1">
			<data element_type="f32" shape="" offset="250616" size="4" />
			<rt_info>
				<attribute name="fused_names" version="0" value="Constant_37117" />
			</rt_info>
			<output>
				<port id="0" precision="FP32" />
			</output>
		</layer>
		<layer id="261" name="Constant_37118" type="Const" version="opset1">
			<data element_type="f32" shape="" offset="250620" size="4" />
			<rt_info>
				<attribute name="fused_names" version="0" value="Constant_37118" />
			</rt_info>
			<output>
				<port id="0" precision="FP32" />
			</output>
		</layer>
		<layer id="262" name="Constant_37119" type="Const" version="opset1">
			<data element_type="f32" shape="" offset="250616" size="4" />
			<rt_info>
				<attribute name="fused_names" version="0" value="Constant_37119" />
			</rt_info>
			<output>
				<port id="0" precision="FP32" />
			</output>
		</layer>
		<layer id="263" name="Constant_37120" type="Const" version="opset1">
			<data element_type="f32" shape="" offset="250620" size="4" />
			<rt_info>
				<attribute name="fused_names" version="0" value="Constant_37120" />
			</rt_info>
			<output>
				<port id="0" precision="FP32" />
			</output>
		</layer>
		<layer id="264" name="/model.6/m.0/cv2/act/Mul/fq_output_0" type="FakeQuantize" version="opset1">
			<data levels="256" auto_broadcast="numpy" />
			<rt_info>
				<attribute name="fused_names" version="0" value="/model.6/m.0/cv2/act/Mul/fq_output_0" />
			</rt_info>
			<input>
				<port id="0" precision="FP32">
					<dim>1</dim>
					<dim>64</dim>
					<dim>40</dim>
					<dim>40</dim>
				</port>
				<port id="1" precision="FP32" />
				<port id="2" precision="FP32" />
				<port id="3" precision="FP32" />
				<port id="4" precision="FP32" />
			</input>
			<output>
				<port id="5" precision="FP32">
					<dim>1</dim>
					<dim>64</dim>
					<dim>40</dim>
					<dim>40</dim>
				</port>
			</output>
		</layer>
		<layer id="265" name="/model.6/m.0/Add" type="Add" version="opset1">
			<data auto_broadcast="numpy" />
			<rt_info>
				<attribute name="fused_names" version="0" value="/model.6/m.0/Add" />
			</rt_info>
			<input>
				<port id="0" precision="FP32">
					<dim>1</dim>
					<dim>64</dim>
					<dim>40</dim>
					<dim>40</dim>
				</port>
				<port id="1" precision="FP32">
					<dim>1</dim>
					<dim>64</dim>
					<dim>40</dim>
					<dim>40</dim>
				</port>
			</input>
			<output>
				<port id="2" precision="FP32" names="/model.6/m.0/Add_output_0">
					<dim>1</dim>
					<dim>64</dim>
					<dim>40</dim>
					<dim>40</dim>
				</port>
			</output>
		</layer>
		<layer id="266" name="Constant_36872" type="Const" version="opset1">
			<data element_type="f32" shape="" offset="175840" size="4" />
			<rt_info>
				<attribute name="fused_names" version="0" value="Constant_36872" />
			</rt_info>
			<output>
				<port id="0" precision="FP32" />
			</output>
		</layer>
		<layer id="267" name="Constant_36873" type="Const" version="opset1">
			<data element_type="f32" shape="" offset="175844" size="4" />
			<rt_info>
				<attribute name="fused_names" version="0" value="Constant_36873" />
			</rt_info>
			<output>
				<port id="0" precision="FP32" />
			</output>
		</layer>
		<layer id="268" name="Constant_36874" type="Const" version="opset1">
			<data element_type="f32" shape="" offset="175840" size="4" />
			<rt_info>
				<attribute name="fused_names" version="0" value="Constant_36874" />
			</rt_info>
			<output>
				<port id="0" precision="FP32" />
			</output>
		</layer>
		<layer id="269" name="Constant_36875" type="Const" version="opset1">
			<data element_type="f32" shape="" offset="175844" size="4" />
			<rt_info>
				<attribute name="fused_names" version="0" value="Constant_36875" />
			</rt_info>
			<output>
				<port id="0" precision="FP32" />
			</output>
		</layer>
		<layer id="270" name="/model.6/m.0/Add/fq_output_0" type="FakeQuantize" version="opset1">
			<data levels="256" auto_broadcast="numpy" />
			<rt_info>
				<attribute name="fused_names" version="0" value="/model.6/m.0/Add/fq_output_0" />
			</rt_info>
			<input>
				<port id="0" precision="FP32">
					<dim>1</dim>
					<dim>64</dim>
					<dim>40</dim>
					<dim>40</dim>
				</port>
				<port id="1" precision="FP32" />
				<port id="2" precision="FP32" />
				<port id="3" precision="FP32" />
				<port id="4" precision="FP32" />
			</input>
			<output>
				<port id="5" precision="FP32">
					<dim>1</dim>
					<dim>64</dim>
					<dim>40</dim>
					<dim>40</dim>
				</port>
			</output>
		</layer>
		<layer id="271" name="model.6.m.1.cv1.conv.weight" type="Const" version="opset1">
			<data element_type="i8" shape="64, 64, 3, 3" offset="250624" size="36864" />
			<rt_info>
				<attribute name="fused_names" version="0" value="model.6.m.1.cv1.conv.weight" />
			</rt_info>
			<output>
				<port id="0" precision="I8">
					<dim>64</dim>
					<dim>64</dim>
					<dim>3</dim>
					<dim>3</dim>
				</port>
			</output>
		</layer>
		<layer id="272" name="Convert_276566" type="Convert" version="opset1">
			<data destination_type="f32" />
			<rt_info>
				<attribute name="fused_names" version="0" value="model.6.m.1.cv1.conv.weight" />
			</rt_info>
			<input>
				<port id="0" precision="I8">
					<dim>64</dim>
					<dim>64</dim>
					<dim>3</dim>
					<dim>3</dim>
				</port>
			</input>
			<output>
				<port id="1" precision="FP32">
					<dim>64</dim>
					<dim>64</dim>
					<dim>3</dim>
					<dim>3</dim>
				</port>
			</output>
		</layer>
		<layer id="273" name="Constant_276464" type="Const" version="opset1">
			<data element_type="f32" shape="64, 1, 1, 1" offset="287488" size="256" />
			<rt_info>
				<attribute name="fused_names" version="0" value="model.6.m.1.cv1.conv.weight" />
			</rt_info>
			<output>
				<port id="0" precision="FP32">
					<dim>64</dim>
					<dim>1</dim>
					<dim>1</dim>
					<dim>1</dim>
				</port>
			</output>
		</layer>
		<layer id="274" name="/model.6/m.1/cv1/conv/Conv/WithoutBiases/fq_weights_1" type="Multiply" version="opset1">
			<data auto_broadcast="numpy" />
			<rt_info>
				<attribute name="fused_names" version="0" value="model.6.m.1.cv1.conv.weight" />
			</rt_info>
			<input>
				<port id="0" precision="FP32">
					<dim>64</dim>
					<dim>64</dim>
					<dim>3</dim>
					<dim>3</dim>
				</port>
				<port id="1" precision="FP32">
					<dim>64</dim>
					<dim>1</dim>
					<dim>1</dim>
					<dim>1</dim>
				</port>
			</input>
			<output>
				<port id="2" precision="FP32">
					<dim>64</dim>
					<dim>64</dim>
					<dim>3</dim>
					<dim>3</dim>
				</port>
			</output>
		</layer>
		<layer id="275" name="/model.6/m.1/cv1/conv/Conv/WithoutBiases" type="Convolution" version="opset1">
			<data strides="1, 1" dilations="1, 1" pads_begin="1, 1" pads_end="1, 1" auto_pad="explicit" />
			<rt_info>
				<attribute name="fused_names" version="0" value="/model.6/m.1/cv1/conv/Conv/WithoutBiases" />
			</rt_info>
			<input>
				<port id="0" precision="FP32">
					<dim>1</dim>
					<dim>64</dim>
					<dim>40</dim>
					<dim>40</dim>
				</port>
				<port id="1" precision="FP32">
					<dim>64</dim>
					<dim>64</dim>
					<dim>3</dim>
					<dim>3</dim>
				</port>
			</input>
			<output>
				<port id="2" precision="FP32">
					<dim>1</dim>
					<dim>64</dim>
					<dim>40</dim>
					<dim>40</dim>
				</port>
			</output>
		</layer>
		<layer id="276" name="Reshape_444" type="Const" version="opset1">
			<data element_type="f32" shape="1, 64, 1, 1" offset="287744" size="256" />
			<rt_info>
				<attribute name="fused_names" version="0" value="Reshape_444" />
			</rt_info>
			<output>
				<port id="0" precision="FP32">
					<dim>1</dim>
					<dim>64</dim>
					<dim>1</dim>
					<dim>1</dim>
				</port>
			</output>
		</layer>
		<layer id="277" name="/model.6/m.1/cv1/conv/Conv" type="Add" version="opset1">
			<data auto_broadcast="numpy" />
			<rt_info>
				<attribute name="fused_names" version="0" value="/model.6/m.1/cv1/conv/Conv" />
			</rt_info>
			<input>
				<port id="0" precision="FP32">
					<dim>1</dim>
					<dim>64</dim>
					<dim>40</dim>
					<dim>40</dim>
				</port>
				<port id="1" precision="FP32">
					<dim>1</dim>
					<dim>64</dim>
					<dim>1</dim>
					<dim>1</dim>
				</port>
			</input>
			<output>
				<port id="2" precision="FP32" names="/model.6/m.1/cv1/conv/Conv_output_0">
					<dim>1</dim>
					<dim>64</dim>
					<dim>40</dim>
					<dim>40</dim>
				</port>
			</output>
		</layer>
		<layer id="278" name="/model.6/m.1/cv1/act/Mul" type="Swish" version="opset4">
			<rt_info>
				<attribute name="fused_names" version="0" value="/model.6/m.1/cv1/act/Mul" />
			</rt_info>
			<input>
				<port id="0" precision="FP32">
					<dim>1</dim>
					<dim>64</dim>
					<dim>40</dim>
					<dim>40</dim>
				</port>
			</input>
			<output>
				<port id="1" precision="FP32" names="/model.6/m.1/cv1/act/Mul_output_0">
					<dim>1</dim>
					<dim>64</dim>
					<dim>40</dim>
					<dim>40</dim>
				</port>
			</output>
		</layer>
		<layer id="279" name="Constant_37127" type="Const" version="opset1">
			<data element_type="f32" shape="" offset="288000" size="4" />
			<rt_info>
				<attribute name="fused_names" version="0" value="Constant_37127" />
			</rt_info>
			<output>
				<port id="0" precision="FP32" />
			</output>
		</layer>
		<layer id="280" name="Constant_37128" type="Const" version="opset1">
			<data element_type="f32" shape="" offset="288004" size="4" />
			<rt_info>
				<attribute name="fused_names" version="0" value="Constant_37128" />
			</rt_info>
			<output>
				<port id="0" precision="FP32" />
			</output>
		</layer>
		<layer id="281" name="Constant_37129" type="Const" version="opset1">
			<data element_type="f32" shape="" offset="288000" size="4" />
			<rt_info>
				<attribute name="fused_names" version="0" value="Constant_37129" />
			</rt_info>
			<output>
				<port id="0" precision="FP32" />
			</output>
		</layer>
		<layer id="282" name="Constant_37130" type="Const" version="opset1">
			<data element_type="f32" shape="" offset="288004" size="4" />
			<rt_info>
				<attribute name="fused_names" version="0" value="Constant_37130" />
			</rt_info>
			<output>
				<port id="0" precision="FP32" />
			</output>
		</layer>
		<layer id="283" name="/model.6/m.1/cv1/act/Mul/fq_output_0" type="FakeQuantize" version="opset1">
			<data levels="256" auto_broadcast="numpy" />
			<rt_info>
				<attribute name="fused_names" version="0" value="/model.6/m.1/cv1/act/Mul/fq_output_0" />
			</rt_info>
			<input>
				<port id="0" precision="FP32">
					<dim>1</dim>
					<dim>64</dim>
					<dim>40</dim>
					<dim>40</dim>
				</port>
				<port id="1" precision="FP32" />
				<port id="2" precision="FP32" />
				<port id="3" precision="FP32" />
				<port id="4" precision="FP32" />
			</input>
			<output>
				<port id="5" precision="FP32">
					<dim>1</dim>
					<dim>64</dim>
					<dim>40</dim>
					<dim>40</dim>
				</port>
			</output>
		</layer>
		<layer id="284" name="model.6.m.1.cv2.conv.weight" type="Const" version="opset1">
			<data element_type="i8" shape="64, 64, 3, 3" offset="288008" size="36864" />
			<rt_info>
				<attribute name="fused_names" version="0" value="model.6.m.1.cv2.conv.weight" />
			</rt_info>
			<output>
				<port id="0" precision="I8">
					<dim>64</dim>
					<dim>64</dim>
					<dim>3</dim>
					<dim>3</dim>
				</port>
			</output>
		</layer>
		<layer id="285" name="Convert_276720" type="Convert" version="opset1">
			<data destination_type="f32" />
			<rt_info>
				<attribute name="fused_names" version="0" value="model.6.m.1.cv2.conv.weight" />
			</rt_info>
			<input>
				<port id="0" precision="I8">
					<dim>64</dim>
					<dim>64</dim>
					<dim>3</dim>
					<dim>3</dim>
				</port>
			</input>
			<output>
				<port id="1" precision="FP32">
					<dim>64</dim>
					<dim>64</dim>
					<dim>3</dim>
					<dim>3</dim>
				</port>
			</output>
		</layer>
		<layer id="286" name="Constant_276618" type="Const" version="opset1">
			<data element_type="f32" shape="64, 1, 1, 1" offset="324872" size="256" />
			<rt_info>
				<attribute name="fused_names" version="0" value="model.6.m.1.cv2.conv.weight" />
			</rt_info>
			<output>
				<port id="0" precision="FP32">
					<dim>64</dim>
					<dim>1</dim>
					<dim>1</dim>
					<dim>1</dim>
				</port>
			</output>
		</layer>
		<layer id="287" name="/model.6/m.1/cv2/conv/Conv/WithoutBiases/fq_weights_1" type="Multiply" version="opset1">
			<data auto_broadcast="numpy" />
			<rt_info>
				<attribute name="fused_names" version="0" value="model.6.m.1.cv2.conv.weight" />
			</rt_info>
			<input>
				<port id="0" precision="FP32">
					<dim>64</dim>
					<dim>64</dim>
					<dim>3</dim>
					<dim>3</dim>
				</port>
				<port id="1" precision="FP32">
					<dim>64</dim>
					<dim>1</dim>
					<dim>1</dim>
					<dim>1</dim>
				</port>
			</input>
			<output>
				<port id="2" precision="FP32">
					<dim>64</dim>
					<dim>64</dim>
					<dim>3</dim>
					<dim>3</dim>
				</port>
			</output>
		</layer>
		<layer id="288" name="/model.6/m.1/cv2/conv/Conv/WithoutBiases" type="Convolution" version="opset1">
			<data strides="1, 1" dilations="1, 1" pads_begin="1, 1" pads_end="1, 1" auto_pad="explicit" />
			<rt_info>
				<attribute name="fused_names" version="0" value="/model.6/m.1/cv2/conv/Conv/WithoutBiases" />
			</rt_info>
			<input>
				<port id="0" precision="FP32">
					<dim>1</dim>
					<dim>64</dim>
					<dim>40</dim>
					<dim>40</dim>
				</port>
				<port id="1" precision="FP32">
					<dim>64</dim>
					<dim>64</dim>
					<dim>3</dim>
					<dim>3</dim>
				</port>
			</input>
			<output>
				<port id="2" precision="FP32">
					<dim>1</dim>
					<dim>64</dim>
					<dim>40</dim>
					<dim>40</dim>
				</port>
			</output>
		</layer>
		<layer id="289" name="Reshape_461" type="Const" version="opset1">
			<data element_type="f32" shape="1, 64, 1, 1" offset="325128" size="256" />
			<rt_info>
				<attribute name="fused_names" version="0" value="Reshape_461" />
			</rt_info>
			<output>
				<port id="0" precision="FP32">
					<dim>1</dim>
					<dim>64</dim>
					<dim>1</dim>
					<dim>1</dim>
				</port>
			</output>
		</layer>
		<layer id="290" name="/model.6/m.1/cv2/conv/Conv" type="Add" version="opset1">
			<data auto_broadcast="numpy" />
			<rt_info>
				<attribute name="fused_names" version="0" value="/model.6/m.1/cv2/conv/Conv" />
			</rt_info>
			<input>
				<port id="0" precision="FP32">
					<dim>1</dim>
					<dim>64</dim>
					<dim>40</dim>
					<dim>40</dim>
				</port>
				<port id="1" precision="FP32">
					<dim>1</dim>
					<dim>64</dim>
					<dim>1</dim>
					<dim>1</dim>
				</port>
			</input>
			<output>
				<port id="2" precision="FP32" names="/model.6/m.1/cv2/conv/Conv_output_0">
					<dim>1</dim>
					<dim>64</dim>
					<dim>40</dim>
					<dim>40</dim>
				</port>
			</output>
		</layer>
		<layer id="291" name="/model.6/m.1/cv2/act/Mul" type="Swish" version="opset4">
			<rt_info>
				<attribute name="fused_names" version="0" value="/model.6/m.1/cv2/act/Mul" />
			</rt_info>
			<input>
				<port id="0" precision="FP32">
					<dim>1</dim>
					<dim>64</dim>
					<dim>40</dim>
					<dim>40</dim>
				</port>
			</input>
			<output>
				<port id="1" precision="FP32" names="/model.6/m.1/cv2/act/Mul_output_0">
					<dim>1</dim>
					<dim>64</dim>
					<dim>40</dim>
					<dim>40</dim>
				</port>
			</output>
		</layer>
		<layer id="292" name="Constant_37137" type="Const" version="opset1">
			<data element_type="f32" shape="" offset="325384" size="4" />
			<rt_info>
				<attribute name="fused_names" version="0" value="Constant_37137" />
			</rt_info>
			<output>
				<port id="0" precision="FP32" />
			</output>
		</layer>
		<layer id="293" name="Constant_37138" type="Const" version="opset1">
			<data element_type="f32" shape="" offset="325388" size="4" />
			<rt_info>
				<attribute name="fused_names" version="0" value="Constant_37138" />
			</rt_info>
			<output>
				<port id="0" precision="FP32" />
			</output>
		</layer>
		<layer id="294" name="Constant_37139" type="Const" version="opset1">
			<data element_type="f32" shape="" offset="325384" size="4" />
			<rt_info>
				<attribute name="fused_names" version="0" value="Constant_37139" />
			</rt_info>
			<output>
				<port id="0" precision="FP32" />
			</output>
		</layer>
		<layer id="295" name="Constant_37140" type="Const" version="opset1">
			<data element_type="f32" shape="" offset="325388" size="4" />
			<rt_info>
				<attribute name="fused_names" version="0" value="Constant_37140" />
			</rt_info>
			<output>
				<port id="0" precision="FP32" />
			</output>
		</layer>
		<layer id="296" name="/model.6/m.1/cv2/act/Mul/fq_output_0" type="FakeQuantize" version="opset1">
			<data levels="256" auto_broadcast="numpy" />
			<rt_info>
				<attribute name="fused_names" version="0" value="/model.6/m.1/cv2/act/Mul/fq_output_0" />
			</rt_info>
			<input>
				<port id="0" precision="FP32">
					<dim>1</dim>
					<dim>64</dim>
					<dim>40</dim>
					<dim>40</dim>
				</port>
				<port id="1" precision="FP32" />
				<port id="2" precision="FP32" />
				<port id="3" precision="FP32" />
				<port id="4" precision="FP32" />
			</input>
			<output>
				<port id="5" precision="FP32">
					<dim>1</dim>
					<dim>64</dim>
					<dim>40</dim>
					<dim>40</dim>
				</port>
			</output>
		</layer>
		<layer id="297" name="/model.6/m.1/Add" type="Add" version="opset1">
			<data auto_broadcast="numpy" />
			<rt_info>
				<attribute name="fused_names" version="0" value="/model.6/m.1/Add" />
			</rt_info>
			<input>
				<port id="0" precision="FP32">
					<dim>1</dim>
					<dim>64</dim>
					<dim>40</dim>
					<dim>40</dim>
				</port>
				<port id="1" precision="FP32">
					<dim>1</dim>
					<dim>64</dim>
					<dim>40</dim>
					<dim>40</dim>
				</port>
			</input>
			<output>
				<port id="2" precision="FP32" names="/model.6/m.1/Add_output_0">
					<dim>1</dim>
					<dim>64</dim>
					<dim>40</dim>
					<dim>40</dim>
				</port>
			</output>
		</layer>
		<layer id="298" name="Constant_36877" type="Const" version="opset1">
			<data element_type="f32" shape="" offset="175840" size="4" />
			<rt_info>
				<attribute name="fused_names" version="0" value="Constant_36877" />
			</rt_info>
			<output>
				<port id="0" precision="FP32" />
			</output>
		</layer>
		<layer id="299" name="Constant_36878" type="Const" version="opset1">
			<data element_type="f32" shape="" offset="175844" size="4" />
			<rt_info>
				<attribute name="fused_names" version="0" value="Constant_36878" />
			</rt_info>
			<output>
				<port id="0" precision="FP32" />
			</output>
		</layer>
		<layer id="300" name="Constant_36879" type="Const" version="opset1">
			<data element_type="f32" shape="" offset="175840" size="4" />
			<rt_info>
				<attribute name="fused_names" version="0" value="Constant_36879" />
			</rt_info>
			<output>
				<port id="0" precision="FP32" />
			</output>
		</layer>
		<layer id="301" name="Constant_36880" type="Const" version="opset1">
			<data element_type="f32" shape="" offset="175844" size="4" />
			<rt_info>
				<attribute name="fused_names" version="0" value="Constant_36880" />
			</rt_info>
			<output>
				<port id="0" precision="FP32" />
			</output>
		</layer>
		<layer id="302" name="/model.6/m.1/Add/fq_output_0" type="FakeQuantize" version="opset1">
			<data levels="256" auto_broadcast="numpy" />
			<rt_info>
				<attribute name="fused_names" version="0" value="/model.6/m.1/Add/fq_output_0" />
			</rt_info>
			<input>
				<port id="0" precision="FP32">
					<dim>1</dim>
					<dim>64</dim>
					<dim>40</dim>
					<dim>40</dim>
				</port>
				<port id="1" precision="FP32" />
				<port id="2" precision="FP32" />
				<port id="3" precision="FP32" />
				<port id="4" precision="FP32" />
			</input>
			<output>
				<port id="5" precision="FP32">
					<dim>1</dim>
					<dim>64</dim>
					<dim>40</dim>
					<dim>40</dim>
				</port>
			</output>
		</layer>
		<layer id="303" name="/model.6/Concat" type="Concat" version="opset1">
			<data axis="1" />
			<rt_info>
				<attribute name="fused_names" version="0" value="/model.6/Concat" />
			</rt_info>
			<input>
				<port id="0" precision="FP32">
					<dim>1</dim>
					<dim>64</dim>
					<dim>40</dim>
					<dim>40</dim>
				</port>
				<port id="1" precision="FP32">
					<dim>1</dim>
					<dim>64</dim>
					<dim>40</dim>
					<dim>40</dim>
				</port>
				<port id="2" precision="FP32">
					<dim>1</dim>
					<dim>64</dim>
					<dim>40</dim>
					<dim>40</dim>
				</port>
				<port id="3" precision="FP32">
					<dim>1</dim>
					<dim>64</dim>
					<dim>40</dim>
					<dim>40</dim>
				</port>
			</input>
			<output>
				<port id="4" precision="FP32" names="/model.6/Concat_output_0">
					<dim>1</dim>
					<dim>256</dim>
					<dim>40</dim>
					<dim>40</dim>
				</port>
			</output>
		</layer>
		<layer id="304" name="model.6.cv2.conv.weight" type="Const" version="opset1">
			<data element_type="i8" shape="128, 256, 1, 1" offset="325392" size="32768" />
			<rt_info>
				<attribute name="fused_names" version="0" value="model.6.cv2.conv.weight" />
			</rt_info>
			<output>
				<port id="0" precision="I8">
					<dim>128</dim>
					<dim>256</dim>
					<dim>1</dim>
					<dim>1</dim>
				</port>
			</output>
		</layer>
		<layer id="305" name="Convert_276874" type="Convert" version="opset1">
			<data destination_type="f32" />
			<rt_info>
				<attribute name="fused_names" version="0" value="model.6.cv2.conv.weight" />
			</rt_info>
			<input>
				<port id="0" precision="I8">
					<dim>128</dim>
					<dim>256</dim>
					<dim>1</dim>
					<dim>1</dim>
				</port>
			</input>
			<output>
				<port id="1" precision="FP32">
					<dim>128</dim>
					<dim>256</dim>
					<dim>1</dim>
					<dim>1</dim>
				</port>
			</output>
		</layer>
		<layer id="306" name="Constant_276772" type="Const" version="opset1">
			<data element_type="f32" shape="128, 1, 1, 1" offset="358160" size="512" />
			<rt_info>
				<attribute name="fused_names" version="0" value="model.6.cv2.conv.weight" />
			</rt_info>
			<output>
				<port id="0" precision="FP32">
					<dim>128</dim>
					<dim>1</dim>
					<dim>1</dim>
					<dim>1</dim>
				</port>
			</output>
		</layer>
		<layer id="307" name="/model.6/cv2/conv/Conv/WithoutBiases/fq_weights_1" type="Multiply" version="opset1">
			<data auto_broadcast="numpy" />
			<rt_info>
				<attribute name="fused_names" version="0" value="model.6.cv2.conv.weight" />
			</rt_info>
			<input>
				<port id="0" precision="FP32">
					<dim>128</dim>
					<dim>256</dim>
					<dim>1</dim>
					<dim>1</dim>
				</port>
				<port id="1" precision="FP32">
					<dim>128</dim>
					<dim>1</dim>
					<dim>1</dim>
					<dim>1</dim>
				</port>
			</input>
			<output>
				<port id="2" precision="FP32">
					<dim>128</dim>
					<dim>256</dim>
					<dim>1</dim>
					<dim>1</dim>
				</port>
			</output>
		</layer>
		<layer id="308" name="/model.6/cv2/conv/Conv/WithoutBiases" type="Convolution" version="opset1">
			<data strides="1, 1" dilations="1, 1" pads_begin="0, 0" pads_end="0, 0" auto_pad="explicit" />
			<rt_info>
				<attribute name="fused_names" version="0" value="/model.6/cv2/conv/Conv/WithoutBiases" />
			</rt_info>
			<input>
				<port id="0" precision="FP32">
					<dim>1</dim>
					<dim>256</dim>
					<dim>40</dim>
					<dim>40</dim>
				</port>
				<port id="1" precision="FP32">
					<dim>128</dim>
					<dim>256</dim>
					<dim>1</dim>
					<dim>1</dim>
				</port>
			</input>
			<output>
				<port id="2" precision="FP32">
					<dim>1</dim>
					<dim>128</dim>
					<dim>40</dim>
					<dim>40</dim>
				</port>
			</output>
		</layer>
		<layer id="309" name="Reshape_480" type="Const" version="opset1">
			<data element_type="f32" shape="1, 128, 1, 1" offset="358672" size="512" />
			<rt_info>
				<attribute name="fused_names" version="0" value="Reshape_480" />
			</rt_info>
			<output>
				<port id="0" precision="FP32">
					<dim>1</dim>
					<dim>128</dim>
					<dim>1</dim>
					<dim>1</dim>
				</port>
			</output>
		</layer>
		<layer id="310" name="/model.6/cv2/conv/Conv" type="Add" version="opset1">
			<data auto_broadcast="numpy" />
			<rt_info>
				<attribute name="fused_names" version="0" value="/model.6/cv2/conv/Conv" />
			</rt_info>
			<input>
				<port id="0" precision="FP32">
					<dim>1</dim>
					<dim>128</dim>
					<dim>40</dim>
					<dim>40</dim>
				</port>
				<port id="1" precision="FP32">
					<dim>1</dim>
					<dim>128</dim>
					<dim>1</dim>
					<dim>1</dim>
				</port>
			</input>
			<output>
				<port id="2" precision="FP32" names="/model.6/cv2/conv/Conv_output_0">
					<dim>1</dim>
					<dim>128</dim>
					<dim>40</dim>
					<dim>40</dim>
				</port>
			</output>
		</layer>
		<layer id="311" name="/model.6/cv2/act/Mul" type="Swish" version="opset4">
			<rt_info>
				<attribute name="fused_names" version="0" value="/model.6/cv2/act/Mul" />
			</rt_info>
			<input>
				<port id="0" precision="FP32">
					<dim>1</dim>
					<dim>128</dim>
					<dim>40</dim>
					<dim>40</dim>
				</port>
			</input>
			<output>
				<port id="1" precision="FP32" names="/model.6/cv2/act/Mul_output_0">
					<dim>1</dim>
					<dim>128</dim>
					<dim>40</dim>
					<dim>40</dim>
				</port>
			</output>
		</layer>
		<layer id="312" name="Constant_36887" type="Const" version="opset1">
…
		<edge from-layer="507" from-port="4" to-layer="534" to-port="1" />
		<edge from-layer="507" from-port="4" to-layer="512" to-port="0" />
		<edge from-layer="508" from-port="0" to-layer="509" to-port="0" />
		<edge from-layer="509" from-port="1" to-layer="511" to-port="0" />
		<edge from-layer="510" from-port="0" to-layer="511" to-port="1" />
		<edge from-layer="511" from-port="2" to-layer="512" to-port="1" />
		<edge from-layer="512" from-port="2" to-layer="514" to-port="0" />
		<edge from-layer="513" from-port="0" to-layer="514" to-port="1" />
		<edge from-layer="514" from-port="2" to-layer="515" to-port="0" />
		<edge from-layer="515" from-port="1" to-layer="520" to-port="0" />
		<edge from-layer="516" from-port="0" to-layer="520" to-port="1" />
		<edge from-layer="517" from-port="0" to-layer="520" to-port="2" />
		<edge from-layer="518" from-port="0" to-layer="520" to-port="3" />
		<edge from-layer="519" from-port="0" to-layer="520" to-port="4" />
		<edge from-layer="520" from-port="5" to-layer="525" to-port="0" />
		<edge from-layer="521" from-port="0" to-layer="522" to-port="0" />
		<edge from-layer="522" from-port="1" to-layer="524" to-port="0" />
		<edge from-layer="523" from-port="0" to-layer="524" to-port="1" />
		<edge from-layer="524" from-port="2" to-layer="525" to-port="1" />
		<edge from-layer="525" from-port="2" to-layer="527" to-port="0" />
		<edge from-layer="526" from-port="0" to-layer="527" to-port="1" />
		<edge from-layer="527" from-port="2" to-layer="528" to-port="0" />
		<edge from-layer="528" from-port="1" to-layer="533" to-port="0" />
		<edge from-layer="529" from-port="0" to-layer="533" to-port="1" />
		<edge from-layer="530" from-port="0" to-layer="533" to-port="2" />
		<edge from-layer="531" from-port="0" to-layer="533" to-port="3" />
		<edge from-layer="532" from-port="0" to-layer="533" to-port="4" />
		<edge from-layer="533" from-port="5" to-layer="534" to-port="2" />
		<edge from-layer="534" from-port="3" to-layer="539" to-port="0" />
		<edge from-layer="535" from-port="0" to-layer="536" to-port="0" />
		<edge from-layer="536" from-port="1" to-layer="538" to-port="0" />
		<edge from-layer="537" from-port="0" to-layer="538" to-port="1" />
		<edge from-layer="538" from-port="2" to-layer="539" to-port="1" />
		<edge from-layer="539" from-port="2" to-layer="541" to-port="0" />
		<edge from-layer="540" from-port="0" to-layer="541" to-port="1" />
		<edge from-layer="541" from-port="2" to-layer="542" to-port="0" />
		<edge from-layer="542" from-port="1" to-layer="547" to-port="0" />
		<edge from-layer="543" from-port="0" to-layer="547" to-port="1" />
		<edge from-layer="544" from-port="0" to-layer="547" to-port="2" />
		<edge from-layer="545" from-port="0" to-layer="547" to-port="3" />
		<edge from-layer="546" from-port="0" to-layer="547" to-port="4" />
		<edge from-layer="547" from-port="5" to-layer="1014" to-port="0" />
		<edge from-layer="547" from-port="5" to-layer="660" to-port="0" />
		<edge from-layer="547" from-port="5" to-layer="585" to-port="0" />
		<edge from-layer="547" from-port="5" to-layer="552" to-port="0" />
		<edge from-layer="548" from-port="0" to-layer="549" to-port="0" />
		<edge from-layer="549" from-port="1" to-layer="551" to-port="0" />
		<edge from-layer="550" from-port="0" to-layer="551" to-port="1" />
		<edge from-layer="551" from-port="2" to-layer="552" to-port="1" />
		<edge from-layer="552" from-port="2" to-layer="554" to-port="0" />
		<edge from-layer="553" from-port="0" to-layer="554" to-port="1" />
		<edge from-layer="554" from-port="2" to-layer="555" to-port="0" />
		<edge from-layer="555" from-port="1" to-layer="560" to-port="0" />
		<edge from-layer="556" from-port="0" to-layer="560" to-port="1" />
		<edge from-layer="557" from-port="0" to-layer="560" to-port="2" />
		<edge from-layer="558" from-port="0" to-layer="560" to-port="3" />
		<edge from-layer="559" from-port="0" to-layer="560" to-port="4" />
		<edge from-layer="560" from-port="5" to-layer="565" to-port="0" />
		<edge from-layer="561" from-port="0" to-layer="562" to-port="0" />
		<edge from-layer="562" from-port="1" to-layer="564" to-port="0" />
		<edge from-layer="563" from-port="0" to-layer="564" to-port="1" />
		<edge from-layer="564" from-port="2" to-layer="565" to-port="1" />
		<edge from-layer="565" from-port="2" to-layer="567" to-port="0" />
		<edge from-layer="566" from-port="0" to-layer="567" to-port="1" />
		<edge from-layer="567" from-port="2" to-layer="568" to-port="0" />
		<edge from-layer="568" from-port="1" to-layer="573" to-port="0" />
		<edge from-layer="569" from-port="0" to-layer="573" to-port="1" />
		<edge from-layer="570" from-port="0" to-layer="573" to-port="2" />
		<edge from-layer="571" from-port="0" to-layer="573" to-port="3" />
		<edge from-layer="572" from-port="0" to-layer="573" to-port="4" />
		<edge from-layer="573" from-port="5" to-layer="578" to-port="0" />
		<edge from-layer="574" from-port="0" to-layer="575" to-port="0" />
		<edge from-layer="575" from-port="1" to-layer="577" to-port="0" />
		<edge from-layer="576" from-port="0" to-layer="577" to-port="1" />
		<edge from-layer="577" from-port="2" to-layer="578" to-port="1" />
		<edge from-layer="578" from-port="2" to-layer="580" to-port="0" />
		<edge from-layer="579" from-port="0" to-layer="580" to-port="1" />
		<edge from-layer="580" from-port="2" to-layer="614" to-port="0" />
		<edge from-layer="581" from-port="0" to-layer="582" to-port="0" />
		<edge from-layer="582" from-port="1" to-layer="584" to-port="0" />
		<edge from-layer="583" from-port="0" to-layer="584" to-port="1" />
		<edge from-layer="584" from-port="2" to-layer="585" to-port="1" />
		<edge from-layer="585" from-port="2" to-layer="587" to-port="0" />
		<edge from-layer="586" from-port="0" to-layer="587" to-port="1" />
		<edge from-layer="587" from-port="2" to-layer="588" to-port="0" />
		<edge from-layer="588" from-port="1" to-layer="593" to-port="0" />
		<edge from-layer="589" from-port="0" to-layer="593" to-port="1" />
		<edge from-layer="590" from-port="0" to-layer="593" to-port="2" />
		<edge from-layer="591" from-port="0" to-layer="593" to-port="3" />
		<edge from-layer="592" from-port="0" to-layer="593" to-port="4" />
		<edge from-layer="593" from-port="5" to-layer="598" to-port="0" />
		<edge from-layer="594" from-port="0" to-layer="595" to-port="0" />
		<edge from-layer="595" from-port="1" to-layer="597" to-port="0" />
		<edge from-layer="596" from-port="0" to-layer="597" to-port="1" />
		<edge from-layer="597" from-port="2" to-layer="598" to-port="1" />
		<edge from-layer="598" from-port="2" to-layer="600" to-port="0" />
		<edge from-layer="599" from-port="0" to-layer="600" to-port="1" />
		<edge from-layer="600" from-port="2" to-layer="601" to-port="0" />
		<edge from-layer="601" from-port="1" to-layer="606" to-port="0" />
		<edge from-layer="602" from-port="0" to-layer="606" to-port="1" />
		<edge from-layer="603" from-port="0" to-layer="606" to-port="2" />
		<edge from-layer="604" from-port="0" to-layer="606" to-port="3" />
		<edge from-layer="605" from-port="0" to-layer="606" to-port="4" />
		<edge from-layer="606" from-port="5" to-layer="611" to-port="0" />
		<edge from-layer="607" from-port="0" to-layer="608" to-port="0" />
		<edge from-layer="608" from-port="1" to-layer="610" to-port="0" />
		<edge from-layer="609" from-port="0" to-layer="610" to-port="1" />
		<edge from-layer="610" from-port="2" to-layer="611" to-port="1" />
		<edge from-layer="611" from-port="2" to-layer="613" to-port="0" />
		<edge from-layer="612" from-port="0" to-layer="613" to-port="1" />
		<edge from-layer="613" from-port="2" to-layer="614" to-port="1" />
		<edge from-layer="614" from-port="2" to-layer="615" to-port="0" />
		<edge from-layer="614" from-port="2" to-layer="1021" to-port="0" />
		<edge from-layer="615" from-port="1" to-layer="633" to-port="0" />
		<edge from-layer="615" from-port="1" to-layer="618" to-port="0" />
		<edge from-layer="616" from-port="0" to-layer="618" to-port="1" />
		<edge from-layer="617" from-port="0" to-layer="618" to-port="2" />
		<edge from-layer="618" from-port="3" to-layer="619" to-port="0" />
		<edge from-layer="618" from-port="3" to-layer="1103" to-port="1" />
		<edge from-layer="619" from-port="1" to-layer="621" to-port="1" />
		<edge from-layer="620" from-port="0" to-layer="621" to-port="2" />
		<edge from-layer="621" from-port="3" to-layer="623" to-port="0" />
		<edge from-layer="622" from-port="0" to-layer="623" to-port="1" />
		<edge from-layer="623" from-port="2" to-layer="625" to-port="0" />
		<edge from-layer="624" from-port="0" to-layer="625" to-port="1" />
		<edge from-layer="625" from-port="2" to-layer="629" to-port="0" />
		<edge from-layer="625" from-port="2" to-layer="627" to-port="0" />
		<edge from-layer="626" from-port="0" to-layer="628" to-port="0" />
		<edge from-layer="627" from-port="1" to-layer="628" to-port="1" />
		<edge from-layer="627" from-port="1" to-layer="642" to-port="1" />
		<edge from-layer="628" from-port="2" to-layer="629" to-port="1" />
		<edge from-layer="629" from-port="2" to-layer="643" to-port="0" />
		<edge from-layer="630" from-port="0" to-layer="636" to-port="0" />
		<edge from-layer="631" from-port="0" to-layer="633" to-port="1" />
		<edge from-layer="632" from-port="0" to-layer="633" to-port="2" />
		<edge from-layer="633" from-port="3" to-layer="1103" to-port="0" />
		<edge from-layer="633" from-port="3" to-layer="634" to-port="0" />
		<edge from-layer="634" from-port="1" to-layer="636" to-port="1" />
		<edge from-layer="635" from-port="0" to-layer="636" to-port="2" />
		<edge from-layer="636" from-port="3" to-layer="638" to-port="0" />
		<edge from-layer="637" from-port="0" to-layer="638" to-port="1" />
		<edge from-layer="638" from-port="2" to-layer="640" to-port="0" />
		<edge from-layer="639" from-port="0" to-layer="640" to-port="1" />
		<edge from-layer="640" from-port="2" to-layer="641" to-port="0" />
		<edge from-layer="640" from-port="2" to-layer="648" to-port="0" />
		<edge from-layer="641" from-port="1" to-layer="642" to-port="0" />
		<edge from-layer="641" from-port="1" to-layer="647" to-port="0" />
		<edge from-layer="642" from-port="2" to-layer="649" to-port="1" />
		<edge from-layer="642" from-port="2" to-layer="643" to-port="1" />
		<edge from-layer="643" from-port="2" to-layer="645" to-port="0" />
		<edge from-layer="644" from-port="0" to-layer="645" to-port="1" />
		<edge from-layer="645" from-port="2" to-layer="652" to-port="0" />
		<edge from-layer="646" from-port="0" to-layer="647" to-port="1" />
		<edge from-layer="647" from-port="2" to-layer="648" to-port="1" />
		<edge from-layer="648" from-port="2" to-layer="649" to-port="0" />
		<edge from-layer="649" from-port="2" to-layer="651" to-port="0" />
		<edge from-layer="650" from-port="0" to-layer="651" to-port="1" />
		<edge from-layer="651" from-port="2" to-layer="652" to-port="1" />
		<edge from-layer="652" from-port="2" to-layer="654" to-port="0" />
		<edge from-layer="653" from-port="0" to-layer="654" to-port="1" />
		<edge from-layer="654" from-port="2" to-layer="1009" to-port="0" />
		<edge from-layer="655" from-port="0" to-layer="798" to-port="0" />
		<edge from-layer="656" from-port="0" to-layer="657" to-port="0" />
		<edge from-layer="657" from-port="1" to-layer="659" to-port="0" />
		<edge from-layer="658" from-port="0" to-layer="659" to-port="1" />
		<edge from-layer="659" from-port="2" to-layer="660" to-port="1" />
		<edge from-layer="660" from-port="2" to-layer="662" to-port="0" />
		<edge from-layer="661" from-port="0" to-layer="662" to-port="1" />
		<edge from-layer="662" from-port="2" to-layer="663" to-port="0" />
		<edge from-layer="663" from-port="1" to-layer="668" to-port="0" />
		<edge from-layer="664" from-port="0" to-layer="668" to-port="1" />
		<edge from-layer="665" from-port="0" to-layer="668" to-port="2" />
		<edge from-layer="666" from-port="0" to-layer="668" to-port="3" />
		<edge from-layer="667" from-port="0" to-layer="668" to-port="4" />
		<edge from-layer="668" from-port="5" to-layer="669" to-port="0" />
		<edge from-layer="669" from-port="2" to-layer="674" to-port="0" />
		<edge from-layer="670" from-port="0" to-layer="671" to-port="0" />
		<edge from-layer="671" from-port="1" to-layer="673" to-port="0" />
		<edge from-layer="672" from-port="0" to-layer="673" to-port="1" />
		<edge from-layer="673" from-port="2" to-layer="674" to-port="1" />
		<edge from-layer="674" from-port="2" to-layer="676" to-port="0" />
		<edge from-layer="675" from-port="0" to-layer="676" to-port="1" />
		<edge from-layer="676" from-port="2" to-layer="677" to-port="0" />
		<edge from-layer="677" from-port="1" to-layer="682" to-port="0" />
		<edge from-layer="678" from-port="0" to-layer="682" to-port="1" />
		<edge from-layer="679" from-port="0" to-layer="682" to-port="2" />
		<edge from-layer="680" from-port="0" to-layer="682" to-port="3" />
		<edge from-layer="681" from-port="0" to-layer="682" to-port="4" />
		<edge from-layer="682" from-port="5" to-layer="684" to-port="0" />
		<edge from-layer="683" from-port="0" to-layer="684" to-port="1" />
		<edge from-layer="684" from-port="4" to-layer="689" to-port="0" />
		<edge from-layer="684" from-port="4" to-layer="711" to-port="1" />
		<edge from-layer="684" from-port="3" to-layer="711" to-port="0" />
		<edge from-layer="685" from-port="0" to-layer="686" to-port="0" />
		<edge from-layer="686" from-port="1" to-layer="688" to-port="0" />
		<edge from-layer="687" from-port="0" to-layer="688" to-port="1" />
		<edge from-layer="688" from-port="2" to-layer="689" to-port="1" />
		<edge from-layer="689" from-port="2" to-layer="691" to-port="0" />
		<edge from-layer="690" from-port="0" to-layer="691" to-port="1" />
		<edge from-layer="691" from-port="2" to-layer="692" to-port="0" />
		<edge from-layer="692" from-port="1" to-layer="697" to-port="0" />
		<edge from-layer="693" from-port="0" to-layer="697" to-port="1" />
		<edge from-layer="694" from-port="0" to-layer="697" to-port="2" />
		<edge from-layer="695" from-port="0" to-layer="697" to-port="3" />
		<edge from-layer="696" from-port="0" to-layer="697" to-port="4" />
		<edge from-layer="697" from-port="5" to-layer="702" to-port="0" />
		<edge from-layer="698" from-port="0" to-layer="699" to-port="0" />
		<edge from-layer="699" from-port="1" to-layer="701" to-port="0" />
		<edge from-layer="700" from-port="0" to-layer="701" to-port="1" />
		<edge from-layer="701" from-port="2" to-layer="702" to-port="1" />
		<edge from-layer="702" from-port="2" to-layer="704" to-port="0" />
		<edge from-layer="703" from-port="0" to-layer="704" to-port="1" />
		<edge from-layer="704" from-port="2" to-layer="705" to-port="0" />
		<edge from-layer="705" from-port="1" to-layer="710" to-port="0" />
		<edge from-layer="706" from-port="0" to-layer="710" to-port="1" />
		<edge from-layer="707" from-port="0" to-layer="710" to-port="2" />
		<edge from-layer="708" from-port="0" to-layer="710" to-port="3" />
		<edge from-layer="709" from-port="0" to-layer="710" to-port="4" />
		<edge from-layer="710" from-port="5" to-layer="711" to-port="2" />
		<edge from-layer="711" from-port="3" to-layer="716" to-port="0" />
		<edge from-layer="712" from-port="0" to-layer="713" to-port="0" />
		<edge from-layer="713" from-port="1" to-layer="715" to-port="0" />
		<edge from-layer="714" from-port="0" to-layer="715" to-port="1" />
		<edge from-layer="715" from-port="2" to-layer="716" to-port="1" />
		<edge from-layer="716" from-port="2" to-layer="718" to-port="0" />
		<edge from-layer="717" from-port="0" to-layer="718" to-port="1" />
		<edge from-layer="718" from-port="2" to-layer="719" to-port="0" />
		<edge from-layer="719" from-port="1" to-layer="724" to-port="0" />
		<edge from-layer="720" from-port="0" to-layer="724" to-port="1" />
		<edge from-layer="721" from-port="0" to-layer="724" to-port="2" />
		<edge from-layer="722" from-port="0" to-layer="724" to-port="3" />
		<edge from-layer="723" from-port="0" to-layer="724" to-port="4" />
		<edge from-layer="724" from-port="5" to-layer="762" to-port="0" />
		<edge from-layer="724" from-port="5" to-layer="837" to-port="0" />
		<edge from-layer="724" from-port="5" to-layer="729" to-port="0" />
		<edge from-layer="725" from-port="0" to-layer="726" to-port="0" />
		<edge from-layer="726" from-port="1" to-layer="728" to-port="0" />
		<edge from-layer="727" from-port="0" to-layer="728" to-port="1" />
		<edge from-layer="728" from-port="2" to-layer="729" to-port="1" />
		<edge from-layer="729" from-port="2" to-layer="731" to-port="0" />
		<edge from-layer="730" from-port="0" to-layer="731" to-port="1" />
		<edge from-layer="731" from-port="2" to-layer="732" to-port="0" />
		<edge from-layer="732" from-port="1" to-layer="737" to-port="0" />
		<edge from-layer="733" from-port="0" to-layer="737" to-port="1" />
		<edge from-layer="734" from-port="0" to-layer="737" to-port="2" />
		<edge from-layer="735" from-port="0" to-layer="737" to-port="3" />
		<edge from-layer="736" from-port="0" to-layer="737" to-port="4" />
		<edge from-layer="737" from-port="5" to-layer="742" to-port="0" />
		<edge from-layer="738" from-port="0" to-layer="739" to-port="0" />
		<edge from-layer="739" from-port="1" to-layer="741" to-port="0" />
		<edge from-layer="740" from-port="0" to-layer="741" to-port="1" />
		<edge from-layer="741" from-port="2" to-layer="742" to-port="1" />
		<edge from-layer="742" from-port="2" to-layer="744" to-port="0" />
		<edge from-layer="743" from-port="0" to-layer="744" to-port="1" />
		<edge from-layer="744" from-port="2" to-layer="745" to-port="0" />
		<edge from-layer="745" from-port="1" to-layer="750" to-port="0" />
		<edge from-layer="746" from-port="0" to-layer="750" to-port="1" />
		<edge from-layer="747" from-port="0" to-layer="750" to-port="2" />
		<edge from-layer="748" from-port="0" to-layer="750" to-port="3" />
		<edge from-layer="749" from-port="0" to-layer="750" to-port="4" />
		<edge from-layer="750" from-port="5" to-layer="755" to-port="0" />
		<edge from-layer="751" from-port="0" to-layer="752" to-port="0" />
		<edge from-layer="752" from-port="1" to-layer="754" to-port="0" />
		<edge from-layer="753" from-port="0" to-layer="754" to-port="1" />
		<edge from-layer="754" from-port="2" to-layer="755" to-port="1" />
		<edge from-layer="755" from-port="2" to-layer="757" to-port="0" />
		<edge from-layer="756" from-port="0" to-layer="757" to-port="1" />
		<edge from-layer="757" from-port="2" to-layer="791" to-port="0" />
		<edge from-layer="758" from-port="0" to-layer="759" to-port="0" />
		<edge from-layer="759" from-port="1" to-layer="761" to-port="0" />
		<edge from-layer="760" from-port="0" to-layer="761" to-port="1" />
		<edge from-layer="761" from-port="2" to-layer="762" to-port="1" />
		<edge from-layer="762" from-port="2" to-layer="764" to-port="0" />
		<edge from-layer="763" from-port="0" to-layer="764" to-port="1" />
		<edge from-layer="764" from-port="2" to-layer="765" to-port="0" />
		<edge from-layer="765" from-port="1" to-layer="770" to-port="0" />
		<edge from-layer="766" from-port="0" to-layer="770" to-port="1" />
		<edge from-layer="767" from-port="0" to-layer="770" to-port="2" />
		<edge from-layer="768" from-port="0" to-layer="770" to-port="3" />
		<edge from-layer="769" from-port="0" to-layer="770" to-port="4" />
		<edge from-layer="770" from-port="5" to-layer="775" to-port="0" />
		<edge from-layer="771" from-port="0" to-layer="772" to-port="0" />
		<edge from-layer="772" from-port="1" to-layer="774" to-port="0" />
		<edge from-layer="773" from-port="0" to-layer="774" to-port="1" />
		<edge from-layer="774" from-port="2" to-layer="775" to-port="1" />
		<edge from-layer="775" from-port="2" to-layer="777" to-port="0" />
		<edge from-layer="776" from-port="0" to-layer="777" to-port="1" />
		<edge from-layer="777" from-port="2" to-layer="778" to-port="0" />
		<edge from-layer="778" from-port="1" to-layer="783" to-port="0" />
		<edge from-layer="779" from-port="0" to-layer="783" to-port="1" />
		<edge from-layer="780" from-port="0" to-layer="783" to-port="2" />
		<edge from-layer="781" from-port="0" to-layer="783" to-port="3" />
		<edge from-layer="782" from-port="0" to-layer="783" to-port="4" />
		<edge from-layer="783" from-port="5" to-layer="788" to-port="0" />
		<edge from-layer="784" from-port="0" to-layer="785" to-port="0" />
		<edge from-layer="785" from-port="1" to-layer="787" to-port="0" />
		<edge from-layer="786" from-port="0" to-layer="787" to-port="1" />
		<edge from-layer="787" from-port="2" to-layer="788" to-port="1" />
		<edge from-layer="788" from-port="2" to-layer="790" to-port="0" />
		<edge from-layer="789" from-port="0" to-layer="790" to-port="1" />
		<edge from-layer="790" from-port="2" to-layer="791" to-port="1" />
		<edge from-layer="791" from-port="2" to-layer="1027" to-port="0" />
		<edge from-layer="791" from-port="2" to-layer="792" to-port="0" />
		<edge from-layer="792" from-port="1" to-layer="810" to-port="0" />
		<edge from-layer="792" from-port="1" to-layer="795" to-port="0" />
		<edge from-layer="793" from-port="0" to-layer="795" to-port="1" />
		<edge from-layer="794" from-port="0" to-layer="795" to-port="2" />
		<edge from-layer="795" from-port="3" to-layer="1112" to-port="1" />
		<edge from-layer="795" from-port="3" to-layer="796" to-port="0" />
		<edge from-layer="796" from-port="1" to-layer="798" to-port="1" />
		<edge from-layer="797" from-port="0" to-layer="798" to-port="2" />
		<edge from-layer="798" from-port="3" to-layer="800" to-port="0" />
		<edge from-layer="799" from-port="0" to-layer="800" to-port="1" />
		<edge from-layer="800" from-port="2" to-layer="802" to-port="0" />
		<edge from-layer="801" from-port="0" to-layer="802" to-port="1" />
		<edge from-layer="802" from-port="2" to-layer="804" to-port="0" />
		<edge from-layer="802" from-port="2" to-layer="806" to-port="0" />
		<edge from-layer="803" from-port="0" to-layer="805" to-port="0" />
		<edge from-layer="804" from-port="1" to-layer="805" to-port="1" />
		<edge from-layer="804" from-port="1" to-layer="819" to-port="1" />
		<edge from-layer="805" from-port="2" to-layer="806" to-port="1" />
		<edge from-layer="806" from-port="2" to-layer="820" to-port="0" />
		<edge from-layer="807" from-port="0" to-layer="813" to-port="0" />
		<edge from-layer="808" from-port="0" to-layer="810" to-port="1" />
		<edge from-layer="809" from-port="0" to-layer="810" to-port="2" />
		<edge from-layer="810" from-port="3" to-layer="1112" to-port="0" />
		<edge from-layer="810" from-port="3" to-layer="811" to-port="0" />
		<edge from-layer="811" from-port="1" to-layer="813" to-port="1" />
		<edge from-layer="812" from-port="0" to-layer="813" to-port="2" />
		<edge from-layer="813" from-port="3" to-layer="815" to-port="0" />
		<edge from-layer="814" from-port="0" to-layer="815" to-port="1" />
		<edge from-layer="815" from-port="2" to-layer="817" to-port="0" />
		<edge from-layer="816" from-port="0" to-layer="817" to-port="1" />
		<edge from-layer="817" from-port="2" to-layer="825" to-port="0" />
		<edge from-layer="817" from-port="2" to-layer="818" to-port="0" />
		<edge from-layer="818" from-port="1" to-layer="824" to-port="0" />
		<edge from-layer="818" from-port="1" to-layer="819" to-port="0" />
		<edge from-layer="819" from-port="2" to-layer="820" to-port="1" />
		<edge from-layer="819" from-port="2" to-layer="826" to-port="1" />
		<edge from-layer="820" from-port="2" to-layer="822" to-port="0" />
		<edge from-layer="821" from-port="0" to-layer="822" to-port="1" />
		<edge from-layer="822" from-port="2" to-layer="829" to-port="0" />
		<edge from-layer="823" from-port="0" to-layer="824" to-port="1" />
		<edge from-layer="824" from-port="2" to-layer="825" to-port="1" />
		<edge from-layer="825" from-port="2" to-layer="826" to-port="0" />
		<edge from-layer="826" from-port="2" to-layer="828" to-port="0" />
		<edge from-layer="827" from-port="0" to-layer="828" to-port="1" />
		<edge from-layer="828" from-port="2" to-layer="829" to-port="1" />
		<edge from-layer="829" from-port="2" to-layer="831" to-port="0" />
		<edge from-layer="830" from-port="0" to-layer="831" to-port="1" />
		<edge from-layer="831" from-port="2" to-layer="1009" to-port="1" />
		<edge from-layer="832" from-port="0" to-layer="975" to-port="0" />
		<edge from-layer="833" from-port="0" to-layer="834" to-port="0" />
		<edge from-layer="834" from-port="1" to-layer="836" to-port="0" />
		<edge from-layer="835" from-port="0" to-layer="836" to-port="1" />
		<edge from-layer="836" from-port="2" to-layer="837" to-port="1" />
		<edge from-layer="837" from-port="2" to-layer="839" to-port="0" />
		<edge from-layer="838" from-port="0" to-layer="839" to-port="1" />
		<edge from-layer="839" from-port="2" to-layer="840" to-port="0" />
		<edge from-layer="840" from-port="1" to-layer="845" to-port="0" />
		<edge from-layer="841" from-port="0" to-layer="845" to-port="1" />
		<edge from-layer="842" from-port="0" to-layer="845" to-port="2" />
		<edge from-layer="843" from-port="0" to-layer="845" to-port="3" />
		<edge from-layer="844" from-port="0" to-layer="845" to-port="4" />
		<edge from-layer="845" from-port="5" to-layer="846" to-port="0" />
		<edge from-layer="846" from-port="2" to-layer="851" to-port="0" />
		<edge from-layer="847" from-port="0" to-layer="848" to-port="0" />
		<edge from-layer="848" from-port="1" to-layer="850" to-port="0" />
		<edge from-layer="849" from-port="0" to-layer="850" to-port="1" />
		<edge from-layer="850" from-port="2" to-layer="851" to-port="1" />
		<edge from-layer="851" from-port="2" to-layer="853" to-port="0" />
		<edge from-layer="852" from-port="0" to-layer="853" to-port="1" />
		<edge from-layer="853" from-port="2" to-layer="854" to-port="0" />
		<edge from-layer="854" from-port="1" to-layer="859" to-port="0" />
		<edge from-layer="855" from-port="0" to-layer="859" to-port="1" />
		<edge from-layer="856" from-port="0" to-layer="859" to-port="2" />
		<edge from-layer="857" from-port="0" to-layer="859" to-port="3" />
		<edge from-layer="858" from-port="0" to-layer="859" to-port="4" />
		<edge from-layer="859" from-port="5" to-layer="861" to-port="0" />
		<edge from-layer="860" from-port="0" to-layer="861" to-port="1" />
		<edge from-layer="861" from-port="3" to-layer="888" to-port="0" />
		<edge from-layer="861" from-port="4" to-layer="888" to-port="1" />
		<edge from-layer="861" from-port="4" to-layer="866" to-port="0" />
		<edge from-layer="862" from-port="0" to-layer="863" to-port="0" />
		<edge from-layer="863" from-port="1" to-layer="865" to-port="0" />
		<edge from-layer="864" from-port="0" to-layer="865" to-port="1" />
		<edge from-layer="865" from-port="2" to-layer="866" to-port="1" />
		<edge from-layer="866" from-port="2" to-layer="868" to-port="0" />
		<edge from-layer="867" from-port="0" to-layer="868" to-port="1" />
		<edge from-layer="868" from-port="2" to-layer="869" to-port="0" />
		<edge from-layer="869" from-port="1" to-layer="874" to-port="0" />
		<edge from-layer="870" from-port="0" to-layer="874" to-port="1" />
		<edge from-layer="871" from-port="0" to-layer="874" to-port="2" />
		<edge from-layer="872" from-port="0" to-layer="874" to-port="3" />
		<edge from-layer="873" from-port="0" to-layer="874" to-port="4" />
		<edge from-layer="874" from-port="5" to-layer="879" to-port="0" />
		<edge from-layer="875" from-port="0" to-layer="876" to-port="0" />
		<edge from-layer="876" from-port="1" to-layer="878" to-port="0" />
		<edge from-layer="877" from-port="0" to-layer="878" to-port="1" />
		<edge from-layer="878" from-port="2" to-layer="879" to-port="1" />
		<edge from-layer="879" from-port="2" to-layer="881" to-port="0" />
		<edge from-layer="880" from-port="0" to-layer="881" to-port="1" />
		<edge from-layer="881" from-port="2" to-layer="882" to-port="0" />
		<edge from-layer="882" from-port="1" to-layer="887" to-port="0" />
		<edge from-layer="883" from-port="0" to-layer="887" to-port="1" />
		<edge from-layer="884" from-port="0" to-layer="887" to-port="2" />
		<edge from-layer="885" from-port="0" to-layer="887" to-port="3" />
		<edge from-layer="886" from-port="0" to-layer="887" to-port="4" />
		<edge from-layer="887" from-port="5" to-layer="888" to-port="2" />
		<edge from-layer="888" from-port="3" to-layer="893" to-port="0" />
		<edge from-layer="889" from-port="0" to-layer="890" to-port="0" />
		<edge from-layer="890" from-port="1" to-layer="892" to-port="0" />
		<edge from-layer="891" from-port="0" to-layer="892" to-port="1" />
		<edge from-layer="892" from-port="2" to-layer="893" to-port="1" />
		<edge from-layer="893" from-port="2" to-layer="895" to-port="0" />
		<edge from-layer="894" from-port="0" to-layer="895" to-port="1" />
		<edge from-layer="895" from-port="2" to-layer="896" to-port="0" />
		<edge from-layer="896" from-port="1" to-layer="901" to-port="0" />
		<edge from-layer="897" from-port="0" to-layer="901" to-port="1" />
		<edge from-layer="898" from-port="0" to-layer="901" to-port="2" />
		<edge from-layer="899" from-port="0" to-layer="901" to-port="3" />
		<edge from-layer="900" from-port="0" to-layer="901" to-port="4" />
		<edge from-layer="901" from-port="5" to-layer="939" to-port="0" />
		<edge from-layer="901" from-port="5" to-layer="906" to-port="0" />
		<edge from-layer="902" from-port="0" to-layer="903" to-port="0" />
		<edge from-layer="903" from-port="1" to-layer="905" to-port="0" />
		<edge from-layer="904" from-port="0" to-layer="905" to-port="1" />
		<edge from-layer="905" from-port="2" to-layer="906" to-port="1" />
		<edge from-layer="906" from-port="2" to-layer="908" to-port="0" />
		<edge from-layer="907" from-port="0" to-layer="908" to-port="1" />
		<edge from-layer="908" from-port="2" to-layer="909" to-port="0" />
		<edge from-layer="909" from-port="1" to-layer="914" to-port="0" />
		<edge from-layer="910" from-port="0" to-layer="914" to-port="1" />
		<edge from-layer="911" from-port="0" to-layer="914" to-port="2" />
		<edge from-layer="912" from-port="0" to-layer="914" to-port="3" />
		<edge from-layer="913" from-port="0" to-layer="914" to-port="4" />
		<edge from-layer="914" from-port="5" to-layer="919" to-port="0" />
		<edge from-layer="915" from-port="0" to-layer="916" to-port="0" />
		<edge from-layer="916" from-port="1" to-layer="918" to-port="0" />
		<edge from-layer="917" from-port="0" to-layer="918" to-port="1" />
		<edge from-layer="918" from-port="2" to-layer="919" to-port="1" />
		<edge from-layer="919" from-port="2" to-layer="921" to-port="0" />
		<edge from-layer="920" from-port="0" to-layer="921" to-port="1" />
		<edge from-layer="921" from-port="2" to-layer="922" to-port="0" />
		<edge from-layer="922" from-port="1" to-layer="927" to-port="0" />
		<edge from-layer="923" from-port="0" to-layer="927" to-port="1" />
		<edge from-layer="924" from-port="0" to-layer="927" to-port="2" />
		<edge from-layer="925" from-port="0" to-layer="927" to-port="3" />
		<edge from-layer="926" from-port="0" to-layer="927" to-port="4" />
		<edge from-layer="927" from-port="5" to-layer="932" to-port="0" />
		<edge from-layer="928" from-port="0" to-layer="929" to-port="0" />
		<edge from-layer="929" from-port="1" to-layer="931" to-port="0" />
		<edge from-layer="930" from-port="0" to-layer="931" to-port="1" />
		<edge from-layer="931" from-port="2" to-layer="932" to-port="1" />
		<edge from-layer="932" from-port="2" to-layer="934" to-port="0" />
		<edge from-layer="933" from-port="0" to-layer="934" to-port="1" />
		<edge from-layer="934" from-port="2" to-layer="968" to-port="0" />
		<edge from-layer="935" from-port="0" to-layer="936" to-port="0" />
		<edge from-layer="936" from-port="1" to-layer="938" to-port="0" />
		<edge from-layer="937" from-port="0" to-layer="938" to-port="1" />
		<edge from-layer="938" from-port="2" to-layer="939" to-port="1" />
		<edge from-layer="939" from-port="2" to-layer="941" to-port="0" />
		<edge from-layer="940" from-port="0" to-layer="941" to-port="1" />
		<edge from-layer="941" from-port="2" to-layer="942" to-port="0" />
		<edge from-layer="942" from-port="1" to-layer="947" to-port="0" />
		<edge from-layer="943" from-port="0" to-layer="947" to-port="1" />
		<edge from-layer="944" from-port="0" to-layer="947" to-port="2" />
		<edge from-layer="945" from-port="0" to-layer="947" to-port="3" />
		<edge from-layer="946" from-port="0" to-layer="947" to-port="4" />
		<edge from-layer="947" from-port="5" to-layer="952" to-port="0" />
		<edge from-layer="948" from-port="0" to-layer="949" to-port="0" />
		<edge from-layer="949" from-port="1" to-layer="951" to-port="0" />
		<edge from-layer="950" from-port="0" to-layer="951" to-port="1" />
		<edge from-layer="951" from-port="2" to-layer="952" to-port="1" />
		<edge from-layer="952" from-port="2" to-layer="954" to-port="0" />
		<edge from-layer="953" from-port="0" to-layer="954" to-port="1" />
		<edge from-layer="954" from-port="2" to-layer="955" to-port="0" />
		<edge from-layer="955" from-port="1" to-layer="960" to-port="0" />
		<edge from-layer="956" from-port="0" to-layer="960" to-port="1" />
		<edge from-layer="957" from-port="0" to-layer="960" to-port="2" />
		<edge from-layer="958" from-port="0" to-layer="960" to-port="3" />
		<edge from-layer="959" from-port="0" to-layer="960" to-port="4" />
		<edge from-layer="960" from-port="5" to-layer="965" to-port="0" />
		<edge from-layer="961" from-port="0" to-layer="962" to-port="0" />
		<edge from-layer="962" from-port="1" to-layer="964" to-port="0" />
		<edge from-layer="963" from-port="0" to-layer="964" to-port="1" />
		<edge from-layer="964" from-port="2" to-layer="965" to-port="1" />
		<edge from-layer="965" from-port="2" to-layer="967" to-port="0" />
		<edge from-layer="966" from-port="0" to-layer="967" to-port="1" />
		<edge from-layer="967" from-port="2" to-layer="968" to-port="1" />
		<edge from-layer="968" from-port="2" to-layer="1033" to-port="0" />
		<edge from-layer="968" from-port="2" to-layer="969" to-port="0" />
		<edge from-layer="969" from-port="1" to-layer="972" to-port="0" />
		<edge from-layer="969" from-port="1" to-layer="987" to-port="0" />
		<edge from-layer="970" from-port="0" to-layer="972" to-port="1" />
		<edge from-layer="971" from-port="0" to-layer="972" to-port="2" />
		<edge from-layer="972" from-port="3" to-layer="1121" to-port="1" />
		<edge from-layer="972" from-port="3" to-layer="973" to-port="0" />
		<edge from-layer="973" from-port="1" to-layer="975" to-port="1" />
		<edge from-layer="974" from-port="0" to-layer="975" to-port="2" />
		<edge from-layer="975" from-port="3" to-layer="977" to-port="0" />
		<edge from-layer="976" from-port="0" to-layer="977" to-port="1" />
		<edge from-layer="977" from-port="2" to-layer="979" to-port="0" />
		<edge from-layer="978" from-port="0" to-layer="979" to-port="1" />
		<edge from-layer="979" from-port="2" to-layer="981" to-port="0" />
		<edge from-layer="979" from-port="2" to-layer="983" to-port="0" />
		<edge from-layer="980" from-port="0" to-layer="982" to-port="0" />
		<edge from-layer="981" from-port="1" to-layer="982" to-port="1" />
		<edge from-layer="981" from-port="1" to-layer="996" to-port="1" />
		<edge from-layer="982" from-port="2" to-layer="983" to-port="1" />
		<edge from-layer="983" from-port="2" to-layer="997" to-port="0" />
		<edge from-layer="984" from-port="0" to-layer="990" to-port="0" />
		<edge from-layer="985" from-port="0" to-layer="987" to-port="1" />
		<edge from-layer="986" from-port="0" to-layer="987" to-port="2" />
		<edge from-layer="987" from-port="3" to-layer="1121" to-port="0" />
		<edge from-layer="987" from-port="3" to-layer="988" to-port="0" />
		<edge from-layer="988" from-port="1" to-layer="990" to-port="1" />
		<edge from-layer="989" from-port="0" to-layer="990" to-port="2" />
		<edge from-layer="990" from-port="3" to-layer="992" to-port="0" />
		<edge from-layer="991" from-port="0" to-layer="992" to-port="1" />
		<edge from-layer="992" from-port="2" to-layer="994" to-port="0" />
		<edge from-layer="993" from-port="0" to-layer="994" to-port="1" />
		<edge from-layer="994" from-port="2" to-layer="995" to-port="0" />
		<edge from-layer="994" from-port="2" to-layer="1002" to-port="0" />
		<edge from-layer="995" from-port="1" to-layer="996" to-port="0" />
		<edge from-layer="995" from-port="1" to-layer="1001" to-port="0" />
		<edge from-layer="996" from-port="2" to-layer="1003" to-port="1" />
		<edge from-layer="996" from-port="2" to-layer="997" to-port="1" />
		<edge from-layer="997" from-port="2" to-layer="999" to-port="0" />
		<edge from-layer="998" from-port="0" to-layer="999" to-port="1" />
		<edge from-layer="999" from-port="2" to-layer="1006" to-port="0" />
		<edge from-layer="1000" from-port="0" to-layer="1001" to-port="1" />
		<edge from-layer="1001" from-port="2" to-layer="1002" to-port="1" />
		<edge from-layer="1002" from-port="2" to-layer="1003" to-port="0" />
		<edge from-layer="1003" from-port="2" to-layer="1005" to-port="0" />
		<edge from-layer="1004" from-port="0" to-layer="1005" to-port="1" />
		<edge from-layer="1005" from-port="2" to-layer="1006" to-port="1" />
		<edge from-layer="1006" from-port="2" to-layer="1008" to-port="0" />
		<edge from-layer="1007" from-port="0" to-layer="1008" to-port="1" />
		<edge from-layer="1008" from-port="2" to-layer="1009" to-port="2" />
		<edge from-layer="1009" from-port="3" to-layer="1011" to-port="0" />
		<edge from-layer="1010" from-port="0" to-layer="1011" to-port="1" />
		<edge from-layer="1011" from-port="2" to-layer="1013" to-port="0" />
		<edge from-layer="1012" from-port="0" to-layer="1013" to-port="1" />
		<edge from-layer="1013" from-port="2" to-layer="1075" to-port="0" />
		<edge from-layer="1013" from-port="2" to-layer="1091" to-port="0" />
		<edge from-layer="1014" from-port="1" to-layer="1017" to-port="0" />
		<edge from-layer="1014" from-port="1" to-layer="1029" to-port="0" />
		<edge from-layer="1014" from-port="1" to-layer="1023" to-port="0" />
		<edge from-layer="1015" from-port="0" to-layer="1017" to-port="1" />
		<edge from-layer="1016" from-port="0" to-layer="1023" to-port="2" />
		<edge from-layer="1016" from-port="0" to-layer="1029" to-port="2" />
		<edge from-layer="1016" from-port="0" to-layer="1017" to-port="2" />
		<edge from-layer="1017" from-port="3" to-layer="1020" to-port="0" />
		<edge from-layer="1018" from-port="0" to-layer="1020" to-port="1" />
		<edge from-layer="1019" from-port="0" to-layer="1020" to-port="2" />
		<edge from-layer="1020" from-port="3" to-layer="1021" to-port="1" />
		<edge from-layer="1021" from-port="2" to-layer="1034" to-port="0" />
		<edge from-layer="1022" from-port="0" to-layer="1023" to-port="1" />
		<edge from-layer="1023" from-port="3" to-layer="1026" to-port="0" />
		<edge from-layer="1024" from-port="0" to-layer="1026" to-port="1" />
		<edge from-layer="1025" from-port="0" to-layer="1026" to-port="2" />
		<edge from-layer="1026" from-port="3" to-layer="1027" to-port="1" />
		<edge from-layer="1027" from-port="2" to-layer="1034" to-port="1" />
		<edge from-layer="1028" from-port="0" to-layer="1029" to-port="1" />
		<edge from-layer="1029" from-port="3" to-layer="1032" to-port="0" />
		<edge from-layer="1030" from-port="0" to-layer="1032" to-port="1" />
		<edge from-layer="1031" from-port="0" to-layer="1032" to-port="2" />
		<edge from-layer="1032" from-port="3" to-layer="1033" to-port="1" />
		<edge from-layer="1033" from-port="2" to-layer="1034" to-port="2" />
		<edge from-layer="1034" from-port="3" to-layer="1037" to-port="0" />
		<edge from-layer="1035" from-port="0" to-layer="1037" to-port="1" />
		<edge from-layer="1036" from-port="0" to-layer="1037" to-port="2" />
		<edge from-layer="1037" from-port="4" to-layer="1133" to-port="0" />
		<edge from-layer="1037" from-port="3" to-layer="1046" to-port="0" />
		<edge from-layer="1037" from-port="3" to-layer="1041" to-port="0" />
		<edge from-layer="1038" from-port="0" to-layer="1045" to-port="0" />
		<edge from-layer="1039" from-port="0" to-layer="1045" to-port="1" />
		<edge from-layer="1040" from-port="0" to-layer="1045" to-port="2" />
		<edge from-layer="1041" from-port="1" to-layer="1054" to-port="0" />
		<edge from-layer="1041" from-port="1" to-layer="1057" to-port="0" />
		<edge from-layer="1041" from-port="1" to-layer="1044" to-port="0" />
		<edge from-layer="1042" from-port="0" to-layer="1044" to-port="1" />
		<edge from-layer="1043" from-port="0" to-layer="1044" to-port="2" />
		<edge from-layer="1043" from-port="0" to-layer="1057" to-port="2" />
		<edge from-layer="1044" from-port="3" to-layer="1045" to-port="3" />
		<edge from-layer="1045" from-port="4" to-layer="1046" to-port="1" />
		<edge from-layer="1046" from-port="2" to-layer="1048" to-port="0" />
		<edge from-layer="1047" from-port="0" to-layer="1048" to-port="1" />
		<edge from-layer="1048" from-port="2" to-layer="1049" to-port="0" />
		<edge from-layer="1049" from-port="1" to-layer="1051" to-port="0" />
		<edge from-layer="1050" from-port="0" to-layer="1051" to-port="1" />
		<edge from-layer="1051" from-port="2" to-layer="1059" to-port="0" />
		<edge from-layer="1052" from-port="0" to-layer="1054" to-port="1" />
		<edge from-layer="1053" from-port="0" to-layer="1054" to-port="2" />
		<edge from-layer="1054" from-port="3" to-layer="1058" to-port="0" />
		<edge from-layer="1055" from-port="0" to-layer="1058" to-port="1" />
		<edge from-layer="1056" from-port="0" to-layer="1057" to-port="1" />
		<edge from-layer="1057" from-port="3" to-layer="1058" to-port="2" />
		<edge from-layer="1058" from-port="3" to-layer="1059" to-port="1" />
		<edge from-layer="1059" from-port="2" to-layer="1063" to-port="0" />
		<edge from-layer="1059" from-port="2" to-layer="1074" to-port="0" />
		<edge from-layer="1059" from-port="2" to-layer="1090" to-port="0" />
		<edge from-layer="1060" from-port="0" to-layer="1074" to-port="1" />
		<edge from-layer="1061" from-port="0" to-layer="1072" to-port="0" />
		<edge from-layer="1062" from-port="0" to-layer="1072" to-port="1" />
		<edge from-layer="1063" from-port="1" to-layer="1066" to-port="0" />
		<edge from-layer="1064" from-port="0" to-layer="1066" to-port="1" />
		<edge from-layer="1065" from-port="0" to-layer="1066" to-port="2" />
		<edge from-layer="1066" from-port="3" to-layer="1068" to-port="0" />
		<edge from-layer="1067" from-port="0" to-layer="1068" to-port="1" />
		<edge from-layer="1068" from-port="2" to-layer="1070" to-port="0" />
		<edge from-layer="1069" from-port="0" to-layer="1070" to-port="1" />
		<edge from-layer="1070" from-port="2" to-layer="1084" to-port="2" />
		<edge from-layer="1070" from-port="2" to-layer="1072" to-port="2" />
		<edge from-layer="1070" from-port="2" to-layer="1087" to-port="0" />
		<edge from-layer="1071" from-port="0" to-layer="1072" to-port="3" />
		<edge from-layer="1072" from-port="4" to-layer="1074" to-port="2" />
		<edge from-layer="1073" from-port="0" to-layer="1074" to-port="3" />
		<edge from-layer="1074" from-port="4" to-layer="1075" to-port="1" />
		<edge from-layer="1075" from-port="2" to-layer="1100" to-port="1" />
		<edge from-layer="1075" from-port="2" to-layer="1080" to-port="0" />
		<edge from-layer="1076" from-port="0" to-layer="1080" to-port="1" />
		<edge from-layer="1077" from-port="0" to-layer="1080" to-port="2" />
		<edge from-layer="1078" from-port="0" to-layer="1080" to-port="3" />
		<edge from-layer="1079" from-port="0" to-layer="1080" to-port="4" />
		<edge from-layer="1080" from-port="5" to-layer="1097" to-port="0" />
		<edge from-layer="1081" from-port="0" to-layer="1084" to-port="0" />
		<edge from-layer="1082" from-port="0" to-layer="1088" to-port="1" />
		<edge from-layer="1082" from-port="0" to-layer="1084" to-port="1" />
		<edge from-layer="1083" from-port="0" to-layer="1088" to-port="3" />
		<edge from-layer="1083" from-port="0" to-layer="1084" to-port="3" />
		<edge from-layer="1084" from-port="4" to-layer="1090" to-port="1" />
		<edge from-layer="1085" from-port="0" to-layer="1088" to-port="0" />
		<edge from-layer="1086" from-port="0" to-layer="1087" to-port="1" />
		<edge from-layer="1087" from-port="2" to-layer="1088" to-port="2" />
		<edge from-layer="1088" from-port="4" to-layer="1090" to-port="2" />
		<edge from-layer="1089" from-port="0" to-layer="1090" to-port="3" />
		<edge from-layer="1090" from-port="4" to-layer="1091" to-port="1" />
		<edge from-layer="1091" from-port="2" to-layer="1100" to-port="0" />
		<edge from-layer="1091" from-port="2" to-layer="1096" to-port="0" />
		<edge from-layer="1092" from-port="0" to-layer="1096" to-port="1" />
		<edge from-layer="1093" from-port="0" to-layer="1096" to-port="2" />
		<edge from-layer="1094" from-port="0" to-layer="1096" to-port="3" />
		<edge from-layer="1095" from-port="0" to-layer="1096" to-port="4" />
		<edge from-layer="1096" from-port="5" to-layer="1097" to-port="1" />
		<edge from-layer="1097" from-port="2" to-layer="1099" to-port="0" />
		<edge from-layer="1098" from-port="0" to-layer="1099" to-port="1" />
		<edge from-layer="1099" from-port="2" to-layer="1101" to-port="0" />
		<edge from-layer="1100" from-port="2" to-layer="1101" to-port="1" />
		<edge from-layer="1101" from-port="2" to-layer="1132" to-port="0" />
		<edge from-layer="1102" from-port="0" to-layer="1108" to-port="0" />
		<edge from-layer="1103" from-port="2" to-layer="1105" to-port="0" />
		<edge from-layer="1104" from-port="0" to-layer="1105" to-port="1" />
		<edge from-layer="1105" from-port="2" to-layer="1107" to-port="0" />
		<edge from-layer="1106" from-port="0" to-layer="1107" to-port="1" />
		<edge from-layer="1107" from-port="2" to-layer="1108" to-port="1" />
		<edge from-layer="1108" from-port="2" to-layer="1110" to-port="0" />
		<edge from-layer="1109" from-port="0" to-layer="1110" to-port="1" />
		<edge from-layer="1110" from-port="2" to-layer="1129" to-port="0" />
		<edge from-layer="1111" from-port="0" to-layer="1117" to-port="0" />
		<edge from-layer="1112" from-port="2" to-layer="1114" to-port="0" />
		<edge from-layer="1113" from-port="0" to-layer="1114" to-port="1" />
		<edge from-layer="1114" from-port="2" to-layer="1116" to-port="0" />
		<edge from-layer="1115" from-port="0" to-layer="1116" to-port="1" />
		<edge from-layer="1116" from-port="2" to-layer="1117" to-port="1" />
		<edge from-layer="1117" from-port="2" to-layer="1119" to-port="0" />
		<edge from-layer="1118" from-port="0" to-layer="1119" to-port="1" />
		<edge from-layer="1119" from-port="2" to-layer="1129" to-port="1" />
		<edge from-layer="1120" from-port="0" to-layer="1126" to-port="0" />
		<edge from-layer="1121" from-port="2" to-layer="1123" to-port="0" />
		<edge from-layer="1122" from-port="0" to-layer="1123" to-port="1" />
		<edge from-layer="1123" from-port="2" to-layer="1125" to-port="0" />
		<edge from-layer="1124" from-port="0" to-layer="1125" to-port="1" />
		<edge from-layer="1125" from-port="2" to-layer="1126" to-port="1" />
		<edge from-layer="1126" from-port="2" to-layer="1128" to-port="0" />
		<edge from-layer="1127" from-port="0" to-layer="1128" to-port="1" />
		<edge from-layer="1128" from-port="2" to-layer="1129" to-port="2" />
		<edge from-layer="1129" from-port="3" to-layer="1131" to-port="0" />
		<edge from-layer="1130" from-port="0" to-layer="1131" to-port="1" />
		<edge from-layer="1131" from-port="2" to-layer="1132" to-port="1" />
		<edge from-layer="1132" from-port="2" to-layer="1134" to-port="0" />
		<edge from-layer="1133" from-port="1" to-layer="1134" to-port="1" />
		<edge from-layer="1134" from-port="2" to-layer="1135" to-port="0" />
	</edges>
	<rt_info>
		<MO_version value="2023.0.1-11005-fa1c41994f3-releases/2023/0" />
		<Runtime_version value="2023.0.1-11005-fa1c41994f3-releases/2023/0" />
		<conversion_parameters>
			<framework value="onnx" />
			<input_model value="DIR/yolov8n.onnx" />
			<is_python_api_used value="True" />
			<model_name value="YOLOv8n" />
		</conversion_parameters>
		<framework>
			<author value="Ultralytics" />
			<description value="Ultralytics YOLOv8n model trained on coco.yaml" />
			<license value="GPL-3.0 https://ultralytics.com/license" />
			<names value="{0: 'person', 1: 'bicycle', 2: 'car', 3: 'motorcycle', 4: 'airplane', 5: 'bus', 6: 'train', 7: 'truck', 8: 'boat', 9: 'traffic light', 10: 'fire hydrant', 11: 'stop sign', 12: 'parking meter', 13: 'bench', 14: 'bird', 15: 'cat', 16: 'dog', 17: 'horse', 18: 'sheep', 19: 'cow', 20: 'elephant', 21: 'bear', 22: 'zebra', 23: 'giraffe', 24: 'backpack', 25: 'umbrella', 26: 'handbag', 27: 'tie', 28: 'suitcase', 29: 'frisbee', 30: 'skis', 31: 'snowboard', 32: 'sports ball', 33: 'kite', 34: 'baseball bat', 35: 'baseball glove', 36: 'skateboard', 37: 'surfboard', 38: 'tennis racket', 39: 'bottle', 40: 'wine glass', 41: 'cup', 42: 'fork', 43: 'knife', 44: 'spoon', 45: 'bowl', 46: 'banana', 47: 'apple', 48: 'sandwich', 49: 'orange', 50: 'broccoli', 51: 'carrot', 52: 'hot dog', 53: 'pizza', 54: 'donut', 55: 'cake', 56: 'chair', 57: 'couch', 58: 'potted plant', 59: 'bed', 60: 'dining table', 61: 'toilet', 62: 'tv', 63: 'laptop', 64: 'mouse', 65: 'remote', 66: 'keyboard', 67: 'cell phone', 68: 'microwave', 69: 'oven', 70: 'toaster', 71: 'sink', 72: 'refrigerator', 73: 'book', 74: 'clock', 75: 'vase', 76: 'scissors', 77: 'teddy bear', 78: 'hair drier', 79: 'toothbrush'}" />
			<stride value="32" />
			<version value="8.0.43" />
		</framework>
		<legacy_frontend value="False" />
		<nncf>
			<quantization>
				<advanced_parameters value="{}" />
				<fast_bias_correction value="True" />
				<ignored_scope>
					<names value="['/model.22/dfl/conv/Conv', '/model.22/Add', '/model.22/Add_1', '/model.22/Add_2', '/model.22/Add_3', '/model.22/Add_4', '/model.22/Add_5', '/model.22/Add_6', '/model.22/Add_7', '/model.22/Add_8', '/model.22/Add_9', '/model.22/Add_10']" />
					<patterns value="[]" />
					<types value="['Multiply', 'Subtract', 'Sigmoid']" />
				</ignored_scope>
				<model_type value="None" />
				<preset value="mixed" />
				<subset_size value="300" />
				<target_device value="ANY" />
			</quantization>
		</nncf>
	</rt_info>
</net>
